checkpoint_critic_0.pth (torch_old, 185314 bytes, 5 tensors)

fcs1.weight f4 [256, 48]
0	0x3df4cdf6	0.119533464
1	0x3dfa8585	0.12232498
2	0xbc73a954	-0.014871914
3	0x3e299384	0.16560179
4	0x3c35a7bc	0.011087354
5	0x3ba12854	0.0049181376
6	0xbcfe2239	-0.031022178
7	0x3e48b849	0.19601549
8	0x3d95ef9b	0.07321092
9	0x3e4ce1b2	0.20007971
10	0xbd9e565e	-0.07731317
11	0x3e4f49b5	0.20242961
12	0x3e0bdc02	0.13658145
13	0x3d6169f3	0.05503268
14	0x3cee932c	0.029122911
15	0x3e298da7	0.16557942
16	0x3e573779	0.21017255
17	0x3e85a4ee	0.26102394
18	0x3d3389cf	0.043832596
19	0x3e5af398	0.21381986
20	0x3e53b4e2	0.2067447
21	0x3dfa2cc5	0.1221557
22	0x3dab55c9	0.083659716
23	0x3dfe69f3	0.12422552
24	0x3ed9c8ad	0.42535916
25	0x3ed9dda5	0.42551914
26	0xbd225297	-0.039629545
27	0x3d5eecb2	0.05442495
28	0xbda687ba	-0.081313565
29	0xbd7130d1	-0.058884446
30	0xbd9baccd	-0.076013185
31	0x3db4d794	0.08830181
32	0x3ebb3a66	0.36567992
33	0x3ed3e822	0.4138804
34	0x3c9e3f82	0.019317392
35	0x3c28e6de	0.010308949
36	0xbe3dff53	-0.1855443
37	0x3da5ec32	0.08101691
38	0xbadbe2e3	-0.0016775992
39	0x3d873183	0.066012405
40	0x3ebcb428	0.36856198
41	0x3ed75c33	0.4206253
42	0x3a3a432d	0.0007105347
43	0xbdde072b	-0.10841211
44	0xbe7f87b7	-0.24954115
45	0x3df7e2a9	0.12103779
46	0x3bf980d4	0.0076142345
47	0xbd014f9d	-0.031570066
48	0x3dc81207	0.097690634
49	0x3f2c73ff	0.67364496
50	0xbd3d5d5b	-0.04623161
51	0xbc91c281	-0.017792942
52	0x3d69b66c	0.057058737
53	0xbdaeb842	-0.08531238
54	0xbda08049	-0.078369685
55	0x3d602bec	0.054729387
56	0x3e33b8f3	0.17551021
57	0x3f3554d4	0.7083256
58	0x3d8380d2	0.06421055
59	0x3b7fd574	0.003903714
60	0x3e4bce28	0.19902861
61	0xbc854a56	-0.016270798
62	0x3d66ae53	0.056318592
63	0x3cb2ce2e	0.02182683
64	0x3d9307d7	0.0717923
65	0x3f246ac7	0.6422543
66	0x3d83a00c	0.06427011
67	0xbd3f663d	-0.04672836
68	0x3e95f227	0.2928631
69	0x3d4036cb	0.046927255
70	0x3d3add27	0.045621064
71	0xbe049af0	-0.12949729
72	0x3e515060	0.20440817
73	0x3d9e8687	0.07740503
74	0x3ca3bb90	0.019986898
75	0xbe90f630	-0.28312826
76	0xbe0d9fcd	-0.1383049
77	0xbd7d7e79	-0.06188819
78	0xbcd93bd0	-0.026517779
79	0xbe9657c7	-0.29363844
80	0x3e83b923	0.25727186
81	0xbd8e9fe7	-0.06964093
82	0xbafebc1b	-0.0019434722
83	0xbea9f515	-0.33194795
84	0xbe84a508	-0.2590716
85	0x3cd054a6	0.025430989
86	0x3d18bbb0	0.037288368
87	0xbebe75eb	-0.3719934
88	0x3e6fcf29	0.23418869
89	0x3c98a004	0.018630989
90	0x3cd48377	0.025941594
91	0x3e3ba4ce	0.18324587
92	0xbe92cc2c	-0.28671396
93	0x3de12f08	0.109952986
94	0x3bab0ca3	0.0052200123
95	0x3e54796e	0.20749447
96	0x3dc56784	0.09638885
97	0xbdb8eb08	-0.09029204
98	0xbd5f1222	-0.054460652
99	0xbe476a25	-0.19474085
100	0xbda2e717	-0.07954233
101	0xbe4639a8	-0.19357932
102	0xbd8c6a1e	-0.06856178
103	0xbdcd50c2	-0.10025169
104	0x3e36f460	0.17866659
105	0xbcb07a46	-0.02154268
106	0xbe0b04ac	-0.13576001
107	0xbe39fd1f	-0.18162964
108	0xbbfeaf6c	-0.0077723768
109	0xbe5a9ca6	-0.21348819
110	0xbd16324f	-0.03666907
111	0xbe4fd887	-0.20297442
112	0x3e2e1b8f	0.170027
113	0xbdccc19d	-0.09997866
114	0xbdf721df	-0.12067007
115	0xbe070c83	-0.13188367
116	0xbcd70086	-0.026245367
117	0xbe678235	-0.22608264
118	0xbcf8cee4	-0.03037209
119	0xbc96c591	-0.018404754
120	0x3d82d4fe	0.06388281
121	0xbe06df77	-0.13171183
122	0xbd665704	-0.05623533
123	0x3e5f007d	0.2177753
124	0x3dad0f4c	0.08450183
125	0xbe379d3c	-0.17931074
126	0x3cca8eb5	0.024726251
127	0x3e0f8b9a	0.14018098
128	0x3c9fc340	0.019502282
129	0xbda432be	-0.08017491
130	0xba34b438	-0.000689331
131	0x3e85b572	0.26114994
132	0x3d05e9fe	0.032693855
133	0xbe6f0f64	-0.23345715
134	0xbc6eb75b	-0.014570083
135	0x3e89fc66	0.26950377
136	0x3d877331	0.06613768
137	0xbc737fe5	-0.014862035
138	0xbcf43846	-0.02981199
139	0x3f2052f8	0.626266
140	0x3d3fad44	0.0467961
141	0xbe41d1e0	-0.18927717
142	0xbc12b1d7	-0.008953533
143	0x3f30e474	0.6909859
144	0x3e82cd75	0.25547376
145	0x3f08968c	0.53354716
146	0xbdad24e6	-0.084543034
147	0xbd88a463	-0.06671979
148	0x3e05f778	0.13082683
149	0xbd64f469	-0.05589715
150	0xbdf9207d	-0.121644
151	0xbd303992	-0.043023653
152	0x3e8fab97	0.280606
153	0x3f0118a8	0.5042825
154	0xbd037b49	-0.032099996
155	0x3d5affbb	0.05346654
156	0x3de05351	0.10953391
157	0xbe8a747a	-0.2704199
158	0x3cddfda1	0.027098479
159	0xbd743986	-0.05962517
160	0x3e462972	0.19351748
161	0x3efdab34	0.4954468
162	0xbd6171d7	-0.055040207
163	0xbd4f4fb6	-0.050613128
164	0x3d8c1cbd	0.06841419
165	0xbee528e2	-0.44757754
166	0xbdedd086	-0.11612038
167	0xbba91583	-0.005160035
168	0x3df3c094	0.11901966
169	0xbcd11cc3	-0.02552641
170	0xbcbd2cc2	-0.023092631
171	0xbe573a75	-0.21018393
172	0xbe27844d	-0.16359062
173	0xbe167de4	-0.14696461
174	0x3c4a0b51	0.0123318
175	0xbe24ef75	-0.1610697
176	0x3e27f0a6	0.16400394
177	0xbe0422bb	-0.12903874
178	0xbc4797fd	-0.012182233
179	0xbe253f0a	-0.16137329
180	0xbddd15a7	-0.107951455
181	0xbe718b79	-0.23588361
182	0xbdf372f6	-0.118871614
183	0xbe50b06d	-0.20379801
184	0x3eaff4a5	0.34366336
185	0xbe0df111	-0.13861491
186	0x3db25b58	0.08708829
187	0xbec914d3	-0.392737
188	0xbd20ab00	-0.03922558
189	0xbeefcb5c	-0.46834838
190	0x3d980ed7	0.074247055
191	0xbed20cc2	-0.41025358
192	0xb956dc36	-0.00020490665
193	0x3ed6186e	0.41815513
194	0x3cb432d0	0.021996886
195	0xbe56630e	-0.20936224
196	0x3ebe0af1	0.37117723
197	0xbde6c6e7	-0.11268406
198	0xbd521f9c	-0.051299676
199	0xbe6fe7ac	-0.2342822
200	0xbb59063b	-0.0033115286
201	0x3ebf5c64	0.37375176
202	0x3c5c3633	0.0134406565
203	0xbe07d794	-0.1326583
204	0x3eb8c646	0.3608877
205	0xbdfd5a41	-0.1237073
206	0x3cd70694	0.026248254
207	0xbd332095	-0.043732245
208	0xbc115e82	-0.00887263
209	0x3eabdd8c	0.33567464
210	0x3c016dba	0.007899696
211	0xbe7c20b0	-0.24621844
212	0x3ebe620d	0.37184182
213	0xbe9c662b	-0.30546698
214	0x3d553d99	0.052060697
215	0xbe7547bf	-0.2395315
216	0x3e6698e3	0.22519259
217	0x3e20a0d6	0.15686354
218	0xbc2c110a	-0.010502109
219	0xbe1b3f40	-0.15160847
220	0xbec8aaa0	-0.39192677
221	0xbd45525b	-0.048174243
222	0xbbd88f4d	-0.0066088797
223	0xbe0c6f14	-0.13714248
224	0x3e9db021	0.30798438
225	0x3dec4023	0.115356706
226	0xbdbc4251	-0.09192336
227	0xbe8d0c67	-0.27548525
228	0xbe8d4109	-0.2758868
229	0xbe55b54b	-0.20869939
230	0x3a769fb1	0.0009407951
231	0xbe356b6e	-0.17716762
232	0x3eb295a8	0.34879804
233	0x3e15df53	0.14635973
234	0xbcf54f9b	-0.029945185
235	0xbd80f2d4	-0.06296316
236	0xbeb30e73	-0.3497196
237	0xbebe777a	-0.37200528
238	0x3cf4954c	0.029856347
239	0xbdf7fd1d	-0.121088244
240	0x3e39e6bd	0.18154426
241	0x3e283e38	0.16429985
242	0xbd939fe2	-0.072082296
243	0x3d022c17	0.03178033
244	0x3dcb9df1	0.09942234
245	0x3b1fb399	0.0024368523
246	0xbd72c551	-0.059270207
247	0x3da85e2d	0.082210876
248	0x3e8ee9b1	0.27912667
249	0x3e27fac5	0.16404255
250	0x3b9e952e	0.004839561
251	0x3e019aad	0.1265666
252	0xbc7378a3	-0.014860305
253	0xbde144a4	-0.1099942
254	0x3ca610e2	0.020271722
255	0x3e21c1b3	0.15796547

fcs1.bias f4 [256]
0	0xbdc78fb5	-0.09744207
1	0xbe35523a	-0.17707148
2	0xbe2fb84a	-0.17160144
3	0xbe2e84a0	-0.1704278
4	0xbe28652d	-0.16444845
5	0xbe588982	-0.21146205
6	0xbe9a9e8c	-0.30199087
7	0xbce89a18	-0.02839379
8	0xbe4dca19	-0.20096625
9	0xbe54adb5	-0.20769389
10	0xbe639ca9	-0.2222773
11	0x3c91829f	0.01776248
12	0xbd1f6737	-0.038916793
13	0x3dacd53e	0.0843911
14	0xbeaa8338	-0.33303237
15	0xbe13357f	-0.14375876
16	0xbe19b4f0	-0.15010428
17	0xbe59420b	-0.212166
18	0xbda92f99	-0.08261032
19	0x3c8865a7	0.016650034
20	0xbde81178	-0.11331457
21	0xbe9fd16c	-0.31214464
22	0xbd59879b	-0.05310784
23	0xbde03eef	-0.10949504
24	0xbd04266c	-0.032263204
25	0xbe60f70b	-0.2196924
26	0xbdd05690	-0.101727605
27	0xbdf13ce8	-0.11779195
28	0x3b4dda89	0.0031410775
29	0xbe71c14b	-0.23608892
30	0xbed93f45	-0.42431083
31	0xbd33fc29	-0.04394165
32	0xbe0ba67c	-0.13637727
33	0xbce5528b	-0.027993461
34	0xbcd2df1e	-0.025741156
35	0xbe8cf51f	-0.27530763
36	0xbea749fd	-0.32673636
37	0xbd69f63c	-0.057119593
38	0xbdedb7d3	-0.11607327
39	0x3844feef	4.6967467e-05
40	0xbda05ee7	-0.07830601
41	0x3d88532c	0.06656489
42	0xbe6063c8	-0.21913064
43	0xbe255acc	-0.16147918
44	0xbd87a8c7	-0.066239886
45	0xbd402aa2	-0.046915658
46	0xbe3a2b57	-0.18180595
47	0xbea172c1	-0.31532863
48	0xbd37a51a	-0.044835187
49	0x3bc8bd18	0.0061260574
50	0xbedf31fa	-0.43592817
51	0xbe544c31	-0.2073219
52	0xbe7887c8	-0.24270546
53	0x3d0a6f6c	0.033797666
54	0xbe54ed6f	-0.20793699
55	0x3c5ec166	0.0135959145
56	0xbe42f812	-0.19039944
57	0xbe4ba7c7	-0.1988822
58	0xbe004b41	-0.12528707
59	0xbd82b299	-0.06381721
60	0xbe2c253c	-0.16811079
61	0x3d2089ad	0.039193798
62	0xbe1ec7a4	-0.15505844
63	0xbd2a6106	-0.041596435
64	0x3d88ccf4	0.06679717
65	0xbe38e3fe	-0.18055722
66	0xbe9975d0	-0.29972696
67	0xbdad0119	-0.08447475
68	0xbe66bbb0	-0.22532535
69	0xbd7ced2e	-0.06174963
70	0x3b8e9d9c	0.0043522846
71	0xbe60a88a	-0.21939293
72	0xbe3be21b	-0.18347971
73	0xbc83620f	-0.016037969
74	0xbe2407da	-0.1601862
75	0xbe07dfd9	-0.13268985
76	0xbe1354fa	-0.14387885
77	0xbe5018b7	-0.20321928
78	0xbea1a4c4	-0.3157102
79	0xbe8d3d2a	-0.27585727
80	0xbe38431a	-0.17994347
81	0x3e03b4bb	0.12861912
82	0xbe28631b	-0.16444056
83	0x3da45b1f	0.080251925
84	0x3dc177f7	0.094467096
85	0xbdd2ad16	-0.1028692
86	0xbea2b065	-0.31775203
87	0xbdf24e87	-0.11831384
88	0xbbd8e8af	-0.006619535
89	0xbdcb8184	-0.099368125
90	0xbe95ff72	-0.29296452
91	0xbe99f2d7	-0.30068085
92	0xbd1ea103	-0.03872777
93	0x3e363404	0.1779328
94	0xbe636db5	-0.22209819
95	0xbe7951b3	-0.24347572
96	0x3e410299	0.18848647
97	0xbe0ccc23	-0.13749747
98	0x3dae1bc8	0.085013926
99	0xbda8631e	-0.0822203
100	0x3ad9b89b	0.0016610803
101	0xbee0a666	-0.43876952
102	0xbda3a249	-0.07989938
103	0x3e87cd5f	0.26523873
104	0xbe81cc06	-0.2535097
105	0xbe31ea95	-0.17374642
106	0xbe27c5fb	-0.16384117
107	0xbe8d869e	-0.27641767
108	0xbe4cf46d	-0.20015116
109	0xbe834e34	-0.25645602
110	0xbe9d289f	-0.30695054
111	0x3d2db100	0.04240513
112	0xbe374bf6	-0.1790007
113	0xbe9d3d1b	-0.30710682
114	0xbe843c8d	-0.25827447
115	0x3e22d82b	0.15902774
116	0xbeaa0d4a	-0.33213264
117	0xbe19536f	-0.14973234
118	0xbeb2ed49	-0.3494666
119	0xbe9fa888	-0.31183267
120	0xbea86b22	-0.32894236
121	0xbd840dde	-0.064479575
122	0xbc949fb7	-0.018142564
123	0xbe6f0c17	-0.23344456
124	0xbe36c171	-0.1784723
125	0xbcaa1858	-0.020763561
126	0xbeedfb38	-0.46480727
127	0xbe2440aa	-0.16040292
128	0xbd92b874	-0.07164088
129	0xbd89432f	-0.067022674
130	0xbd69f82d	-0.057121444
131	0xbe4c57a2	-0.19955304
132	0xbdf31228	-0.118686974
133	0xbe64a000	-0.2232666
134	0xbdf881e6	-0.12134151
135	0xbcf07178	-0.029350981
136	0xbe6daea3	-0.2321115
137	0xbeaf688c	-0.3425945
138	0xbe0b857c	-0.13625139
139	0xbeaefcc0	-0.34177208
140	0xbe97fc29	-0.2968457
141	0xbeb1b143	-0.34705552
142	0xbeab6489	-0.3347514
143	0xbe08504e	-0.13311884
144	0xbd5ed116	-0.05439862
145	0xbe540e91	-0.20708682
146	0xbdf80821	-0.121109255
147	0xbc980063	-0.018554872
148	0xbd93feff	-0.07226371
149	0xbd630d0b	-0.05543236
150	0xbe075e60	-0.13219595
151	0x3d81ccff	0.06337928
152	0xbde91260	-0.11380458
153	0xbe230339	-0.15919198
154	0x3c4670e1	0.012111873
155	0xbe9b1779	-0.30291346
156	0xbe3f26ca	-0.1866714
157	0x3d5e1161	0.054215793
158	0xbd5af465	-0.05345573
159	0xbe072ca0	-0.13200617
160	0xbeac3255	-0.3363215
161	0xbce90457	-0.028444452
162	0xbdf6b748	-0.12046677
163	0xbdfc940f	-0.123329274
164	0xbe707b89	-0.23484625
165	0xbe131df2	-0.14366892
166	0xbead1e27	-0.33812067
167	0x3cdb1ed2	0.026748095
168	0xbe171839	-0.14755334
169	0xbea0f085	-0.31433502
170	0x3c9d4394	0.019197263
171	0xbc980031	-0.018554779
172	0xbe352b44	-0.17692286
173	0xbcb42c01	-0.021993639
174	0x3decb1bb	0.11557337
175	0x3c9e973c	0.019359224
176	0xbdb1b21a	-0.08676548
177	0xbe923ac9	-0.28560475
178	0xbd82fb02	-0.06395532
179	0xbe3111b5	-0.17291911
180	0xbe992d15	-0.29917207
181	0xbe246315	-0.16053422
182	0xbc44a07a	-0.012001151
183	0xbe910f09	-0.28331783
184	0xbeae0c9a	-0.3399399
185	0xbe8b94d3	-0.2726198
186	0x3d1a9f31	0.037749473
187	0xbdcb957a	-0.0994062
188	0xbe0d5633	-0.13802414
189	0xbcd9a16f	-0.026566235
190	0xbe06731c	-0.13129848
191	0x3c882cc7	0.016622914
192	0xbe6aea30	-0.22940898
193	0xbc0eb0bd	-0.00870913
194	0xba9c4565	-0.0011922537
195	0xbe73a8ba	-0.23794833
196	0xbe5d69f4	-0.21622449
197	0xbe8ee5bf	-0.27909657
198	0xbdf6dc1b	-0.120537005
199	0xbeb311ca	-0.3497451
200	0xbe2798ac	-0.16366833
201	0x3d9f21be	0.07770108
202	0xbe4bd4f1	-0.1990545
203	0xbe5a8cc1	-0.21342756
204	0xbe0d90c0	-0.13824749
205	0x3b1e9f5b	0.002420387
206	0xbe311669	-0.17293705
207	0xbe582a03	-0.21109776
208	0xbe7a6d46	-0.24455747
209	0xbd36a208	-0.04458812
210	0xbe9092cf	-0.28237006
211	0xbe465c5e	-0.19371173
212	0x3c219ee1	0.00986454
213	0x3d903c91	0.07042802
214	0xbdd6ea1f	-0.10493874
215	0x3e14ab21	0.14518405
216	0xbec6d163	-0.38831624
217	0xbdd9e9e2	-0.10640313
218	0xbea44f9a	-0.3209198
219	0xbe773818	-0.24142492
220	0xbd3fa091	-0.046783987
221	0xbe4bd276	-0.19904503
222	0xbea785dd	-0.32719317
223	0xbe59a9e6	-0.21256217
224	0x3d42520f	0.04744154
225	0xbeac4d0b	-0.3365253
226	0xbe87c0d2	-0.26514298
227	0xbd1108f4	-0.03540893
228	0xbd17b23e	-0.03703522
229	0xbe774f95	-0.24151452
230	0xbcf3a770	-0.029742926
231	0xbe3e091a	-0.1855816
232	0xbdc9e587	-0.09858232
233	0xbec3a267	-0.3820984
234	0xbe6bbd16	-0.2302135
235	0xbcefe3d1	-0.029283436
236	0xbe67140e	-0.22566244
237	0x3e1ff065	0.15619047
238	0xbcbe9209	-0.023262994
239	0xbdedac75	-0.11605159
240	0x3e1785e3	0.14797167
241	0xbeb8a86e	-0.36066002
242	0xbe3cf142	-0.18451408
243	0xbe706e10	-0.23479486
244	0xbe8f6ffc	-0.28015125
245	0xbe0f52f3	-0.13996486
246	0xbd91c044	-0.0711675
247	0xbedf658c	-0.43632162
248	0xbe5f2cb4	-0.21794397
249	0xbddd9d50	-0.108210206
250	0xbe351497	-0.17683636
251	0xbe931c38	-0.28732467
252	0xbe899ddf	-0.2687826
253	0xbe8bd358	-0.2730968
254	0xbdae09d4	-0.08497968
255	0xbea7117f	-0.32630536

fc2.weight f4 [128, 260]
0	0xbe04f56f	-0.1298425
1	0xbdb0832b	-0.08618768
2	0xbca3913d	-0.019966716
3	0xbdc39b5d	-0.095511176
4	0xbdd3a79c	-0.10334703
5	0xbd8881e2	-0.06665398
6	0xbe0eab40	-0.13932514
7	0xbe006777	-0.12539469
8	0xbe3bcbca	-0.18339458
9	0xbda4ff60	-0.080565214
10	0x3d291cac	0.04128711
11	0x3e1c9157	0.15289818
12	0xbd448cc0	-0.047985792
13	0x3c8d8df8	0.01727961
14	0xbe0719ce	-0.13193437
15	0x3bf85805	0.007578852
16	0xbe2d60cd	-0.16931458
17	0xbd99dada	-0.07512446
18	0xbde7ae23	-0.11312511
19	0xbd50563d	-0.050863493
20	0xbd05848c	-0.03259711
21	0xbe80e117	-0.2517173
22	0xbe0fefa5	-0.14056261
23	0xbc5a28d5	-0.013315399
24	0x3b539fe3	0.0032291345
25	0xbdfe4ed1	-0.12417377
26	0xbe0e61cd	-0.13904496
27	0x3db9a52b	0.090647064
28	0xbe5748ba	-0.21023837
29	0xbccca5ab	-0.02498134
30	0xbd9f1536	-0.077677175
31	0x3b075486	0.0020649745
32	0xbdc0add0	-0.09408152
33	0x3d8f3a69	0.06993563
34	0xbe246e71	-0.16057755
35	0xbdfea8b1	-0.12434519
36	0xbdb3a0b8	-0.08770889
37	0xbd86f5a6	-0.065898225
38	0x3bd47a54	0.006484309
39	0xbe02c6eb	-0.12771194
40	0xbe0da325	-0.13831766
41	0xba92370e	-0.0011155324
42	0xbd511a8e	-0.051050715
43	0xbd9d8135	-0.0769066
44	0xbd8cc3c4	-0.06873277
45	0x3e23fe73	0.16015033
46	0xbac7506a	-0.001520646
47	0x3c8139a1	0.01577455
48	0xbd009b63	-0.03139819
49	0xbd570d7f	-0.052503105
50	0x3cec33bc	0.028833263
51	0x3a53cec6	0.0008079823
52	0xbdf7f9d8	-0.12108201
53	0x3ce08846	0.02740873
54	0xbc19738b	-0.0093659265
55	0x3c0ce72a	0.008600036
56	0xbe1aecb2	-0.15129355
57	0xbdf495f2	-0.11942662
58	0x3d00ecb8	0.031475753
59	0x3cc418f9	0.02393769
60	0xbdc66836	-0.096878454
61	0xbdd87ad0	-0.105702996
62	0xbdd52a60	-0.10408473
63	0xbc50a567	-0.0127347475
64	0xbc85e52c	-0.01634463
65	0x3d8c26f1	0.06843365
66	0x3c61de42	0.013785901
67	0xbdaf33ec	-0.08554825
68	0xbe7e09a9	-0.24808373
69	0xbe392317	-0.18079792
70	0xbe2a370f	-0.16622566
71	0x3cfbf44e	0.030756142
72	0xbd462d32	-0.048382945
73	0xbe0ee27f	-0.13953589
74	0xbe664b59	-0.2248968
75	0xbd5f666d	-0.05454104
76	0x3ae6be35	0.0017604294
77	0xbe7b4a4e	-0.24540064
78	0xbdd744fb	-0.10511204
79	0x3d06218a	0.03274683
80	0x3d97596c	0.07390103
81	0xbd20e8ad	-0.039284397
82	0xbdfd1eb9	-0.123593755
83	0xbe137fe0	-0.14404249
84	0xbe4f5134	-0.2024582
85	0xbe6167c0	-0.22012234
86	0x3c6d93ca	0.014500568
87	0xbcfd233e	-0.030900594
88	0xbe31240c	-0.17298907
89	0xbca73364	-0.020410247
90	0x3d1205b4	0.03564997
91	0xbdc9c70f	-0.098524205
92	0x3d5bc48e	0.053654246
93	0xbafcc2f6	-0.0019284177
94	0xbd5b503a	-0.053543307
95	0xbc65a166	-0.014015531
96	0xbdb8d464	-0.09024885
97	0xbd860208	-0.06543356
98	0xbde0e960	-0.10982013
99	0xbe02d6b6	-0.12777218
100	0xbddfd806	-0.10929875
101	0xbd28b70a	-0.041190185
102	0xbcc7a550	-0.02437082
103	0x3c1b7ae2	0.009489747
104	0x3d2ed246	0.042681
105	0xbe4eef3f	-0.20208453
106	0xbecc47ed	-0.39898625
107	0xbd0ce4e7	-0.034397986
108	0xbd83b101	-0.06430245
109	0x3d5679bb	0.052362185
110	0xbd71036d	-0.058841158
111	0x3b8150dc	0.0039464068
112	0xbc183243	-0.009289327
113	0xbd93cba8	-0.07216579
114	0x3d08851c	0.033330068
115	0xbe2f1008	-0.17095959
116	0x3d828592	0.06373133
117	0x3bb8d97e	0.0056411615
118	0xbab61a2f	-0.0013893301
119	0xbdf9e2b2	-0.12201442
120	0x3d274e0b	0.040845912
121	0xbdbf3099	-0.09335441
122	0x3d88d489	0.06681163
123	0xbebf0b4e	-0.37313312
124	0xbd722542	-0.059117563
125	0x3d906637	0.07050746
126	0xbdad9a85	-0.08476738
127	0xbe0f4f22	-0.1399503
128	0xbd4a4926	-0.049386166
129	0xbe1af658	-0.15133035
130	0xbd5d01cf	-0.053956803
131	0xbdfe1b3a	-0.12407537
132	0xbe097d6d	-0.13426752
133	0x3d8647ae	0.065566406
134	0x3c2ee14a	0.01067383
135	0x3901375d	0.00012323023
136	0xbe945513	-0.28971156
137	0xbe38b04c	-0.18036002
138	0x3e2b572a	0.16732469
139	0xbaa27df8	-0.0012397161
140	0xbd955236	-0.07291071
141	0xbd2f49af	-0.04279488
142	0x3ce4b0d3	0.027916348
143	0xbe337401	-0.1752472
144	0xbd980b3c	-0.07424018
145	0x3cff521b	0.03116708
146	0xbde19e49	-0.110165186
147	0xbe31f7ec	-0.17379731
148	0x3d447ecb	0.04797248
149	0xbdf8d425	-0.12149838
150	0xbb1245ef	-0.0022319516
151	0xbd8b8313	-0.0681211
152	0xbde4c812	-0.11170973
153	0xbc909511	-0.017649205
154	0xbcf0c752	-0.029391918
155	0xbe0ccc54	-0.1374982
156	0xbd54a101	-0.051911358
157	0xbe5bd0b1	-0.21466328
158	0x3d980a7e	0.07423876
159	0xbdced111	-0.1009847
160	0x3d69d6ff	0.057089802
161	0xbe11cd5c	-0.14238495
162	0xbde825d4	-0.1133534
163	0x3d0bb471	0.03410763
164	0xbe1d5c10	-0.1536715
165	0xbd6b466c	-0.057440206
166	0xbd82a336	-0.06378786
167	0x3d23189e	0.0398184
168	0xbe130122	-0.14355901
169	0xbce5c847	-0.028049601
170	0xbd93e0c9	-0.07220609
171	0xbd40e646	-0.047094606
172	0xbdb3b596	-0.08774869
173	0x3d7b01c6	0.06128099
174	0xbdd567ea	-0.10420211
175	0xbddf3e7f	-0.10900592
176	0xbdfd8654	-0.12379137
177	0xbdaeec06	-0.08541112
178	0x3de97a64	0.11400297
179	0xbdf4475c	-0.11927673
180	0xbd06c387	-0.032901313
181	0xbc0a14d8	-0.008427821
182	0xbe7cd1ca	-0.24689403
183	0x3c874eeb	0.016517123
184	0xbcff473f	-0.031161902
185	0xbdf023ec	-0.117256016
186	0xbd74290c	-0.059609458
187	0xbda18c0b	-0.07888039
188	0xbdfea7a3	-0.12434318
189	0xbd8c3ace	-0.068471536
190	0xbde581af	-0.11206376
191	0xbe9f04f5	-0.3105847
192	0x3d879bb8	0.06621498
193	0xbd673346	-0.056445383
194	0xbbf800a0	-0.007568434
195	0x3d1d6177	0.038423028
196	0xbdf33046	-0.11874442
197	0xbde983c7	-0.11402088
198	0xbe09ddfd	-0.13463588
199	0xbdb2226f	-0.08697974
200	0xbe0e4db4	-0.13896829
201	0x3cd795d0	0.026316553
202	0x3be78f92	0.0070666755
203	0xbe051d3f	-0.12999438
204	0x3d228084	0.039673343
205	0xbc524927	-0.012834824
206	0xbdeb4653	-0.11488023
207	0xbd3f5f55	-0.046721775
208	0xbd55f40a	-0.052234687
209	0x3ca65ee7	0.020308925
210	0x3d2bec94	0.041973665
211	0x3d8ab37b	0.067725144
212	0x3d99e61f	0.07514595
213	0xbdc3779c	-0.09544298
214	0xbe0eef01	-0.1395836
215	0xbdec54c8	-0.11539608
216	0x3d05e1e9	0.032686148
217	0x3bfb5dac	0.0076710787
218	0xbcdecd2d	-0.027197445
219	0xbd8d69a4	-0.06904915
220	0xbe3bf568	-0.18355334
221	0x3a2f1a2e	0.00066796213
222	0xbe05a1f3	-0.1305006
223	0xbe0231d3	-0.12714319
224	0xbc164dd9	-0.009173834
225	0x3cf83698	0.03029947
226	0x3e0ee510	0.13954568
227	0xbdd9901c	-0.1062319
228	0xbdbd7613	-0.092510365
229	0xbc27861b	-0.010224844
230	0xbe045506	-0.12923059
231	0xbb1ea2c0	-0.0024205893
232	0x3cbeeb39	0.023305522
233	0xbd923746	-0.07139449
234	0x3c7bebd8	0.015376054
235	0x3d506155	0.050874073
236	0x3cf0e084	0.029403932
237	0x3d2844e6	0.04108133
238	0x3cd5f22b	0.026116451
239	0xbd3b5d45	-0.045743246
240	0x3d1effdf	0.038818236
241	0xbdbe1d04	-0.09282878
242	0xbd875195	-0.066073574
243	0x3c2642a1	0.0101477215
244	0xbcf57ff0	-0.029968232
245	0xbd508146	-0.050904535
246	0xbe4046fe	-0.18777081
247	0xbe4b63c9	-0.19862284
248	0xbe12e942	-0.14346793
249	0xbcdb2cbd	-0.026754731
250	0xbda51514	-0.08060661
251	0x3d33d13d	0.043900717
252	0xbd878be2	-0.066184774
253	0xbb13920d	-0.0022517473
254	0xbde4046c	-0.11133656
255	0xbd4259d6	-0.047448955

fc2.bias f4 [128]
0	0xbc619b06	-0.013769871
1	0xbe08111e	-0.1328778
2	0xbe198ae6	-0.14994392
3	0x3e111095	0.14166482
4	0x3d415c0d	0.047206927
5	0xbd8f7bf5	-0.07006065
6	0xbe0e9ffd	-0.13928218
7	0xbe1e60ef	-0.15466665
8	0xbc9778f8	-0.0184903
9	0xbde9b148	-0.11410767
10	0x3da4940d	0.08036051
11	0x3eb68c2b	0.35653815
12	0xbe15b926	-0.1462141
13	0xbe04a0c2	-0.12951949
14	0xbd0ff4af	-0.035145458
15	0xbe02bbf1	-0.12767006
16	0x3d6dec7b	0.058086853
17	0xbe10a55c	-0.1412558
18	0xbda22b68	-0.07918435
19	0xbd9cf1c9	-0.07663304
20	0xbe0c2e72	-0.13689592
21	0xbd8b9ca0	-0.06816983
22	0xbdf6dad6	-0.120534584
23	0xbe6d9349	-0.23200716
24	0xbd0b0c48	-0.03394726
25	0xbe985f52	-0.29760224
26	0x3e148d64	0.14507061
27	0xbe062270	-0.13099074
28	0xbe6cbed9	-0.23119678
29	0xbd645f1d	-0.05575477
30	0xbdd358e5	-0.1031969
31	0xbd84bd62	-0.064814344
32	0xbe58b770	-0.21163726
33	0x3c4be3b3	0.012444424
34	0x38d67e73	0.00010227868
35	0xbdc50c23	-0.096214555
36	0xbca1a5d8	-0.0197324
37	0xbdc29245	-0.09500555
38	0xbdf2d3d9	-0.11856813
39	0xbe1a8f14	-0.15093642
40	0xbe05134e	-0.12995645
41	0xbdbd3f41	-0.0924058
42	0xbdeabb70	-0.11461532
43	0xbde55bf8	-0.11199182
44	0xbe0b4b3a	-0.13602915
45	0xbe32a6c1	-0.17446424
46	0x3df81265	0.121128835
47	0xbdf6e2ad	-0.12054954
48	0xbd936e4e	-0.07198773
49	0xbe76c3a8	-0.24098074
50	0xbe588a45	-0.21146496
51	0xbd41e2c0	-0.047335386
52	0x3ed4927d	0.41518012
53	0x3e4d9f46	0.20080289
54	0xbe1c9ad5	-0.15293439
55	0xbc9bc3c6	-0.01901425
56	0xbcebeed8	-0.028800413
57	0xbd6188b8	-0.055062026
58	0xbe1912f7	-0.14948641
59	0xbe02957b	-0.12752335
60	0xbe752d72	-0.23943117
61	0x3cba88f2	0.022770379
62	0xbd6bde04	-0.057584777
63	0xbd797afe	-0.06090831
64	0xbe253c75	-0.16136344
65	0xbdba775d	-0.09104798
66	0xbe4d99db	-0.20078222
67	0xbe2d01cb	-0.16895215
68	0xbe0829ef	-0.13297246
69	0xbdd0598f	-0.10173332
70	0xbe372fd5	-0.1788934
71	0xbdba1557	-0.090861015
72	0xbde3ebd4	-0.11128965
73	0xbe838c7b	-0.25693116
74	0xbe36ce83	-0.17852215
75	0xbdc790c3	-0.09744408
76	0xbdc7a16d	-0.097475864
77	0xbd9b0d8d	-0.07570944
78	0xbd8df2e6	-0.06931095
79	0xbdb730ed	-0.08944879
80	0xbddbd3fb	-0.107337914
81	0x3e9b23b1	0.30300668
82	0xbdada881	-0.08479405
83	0xbccd9323	-0.025094574
84	0xbdf6ecda	-0.120568946
85	0x3d09f73c	0.033683047
86	0xbe35c982	-0.1775265
87	0x3c24b280	0.010052323
88	0xbd4bb579	-0.049733613
89	0xbe253b72	-0.16135958
90	0xbdaa4d54	-0.083155304
91	0x3d07383f	0.033012625
92	0xbe8890d1	-0.26672986
93	0xbe3b1ae4	-0.18271977
94	0xbddfb6dc	-0.109235495
95	0xbdd8b62e	-0.10581623
96	0xbe86eb9b	-0.26351628
97	0xbdb67eca	-0.08910902
98	0xbe5d469d	-0.21608968
99	0xbe4c8536	-0.19972691
100	0xbdba5d11	-0.09099782
101	0xbcff748d	-0.031183505
102	0xbd8a27de	-0.06745885
103	0xbe8a438a	-0.27004653
104	0x3d450e72	0.04810948
105	0xbdb08445	-0.086189784
106	0xbe8a7a16	-0.2704627
107	0xbe3f36ac	-0.186732
108	0xbdac0c46	-0.084007785
109	0xbd73b701	-0.059500698
110	0xbe2fc371	-0.17164399
111	0xbe560312	-0.20899609
112	0xbd9a9fe3	-0.07550027
113	0xbdddeed4	-0.108365685
114	0xbe77fb4a	-0.24216953
115	0xbe2d5490	-0.1692679
116	0x3c762bf1	0.015025125
117	0x3d80c1c7	0.0628696
118	0xbcaf1f8d	-0.02137735
119	0x3e1ffff8	0.15624988
120	0xbd582ce6	-0.052777193
121	0xbe6c3475	-0.23066886
122	0xbd8f3051	-0.069916375
123	0x3d0a774d	0.03380518
124	0xbf15481b	-0.5831315
125	0xbe27cd3a	-0.16386881
126	0xba2792d8	-0.0006392426
127	0xbda45199	-0.08023376

fc3.weight f4 [1, 128]
0	0x3b93c211	0.0045092185
1	0x3bf43907	0.0074530873
2	0xbc758c33	-0.014987039
3	0xbbcb3f8a	-0.006202643
4	0xbc2aa94f	-0.010416343
5	0x3bb1726a	0.0054152505
6	0x3c1993d6	0.009373626
7	0x3c725035	0.014789631
8	0x3ce9b5db	0.028529098
9	0xbbade576	-0.005306895
10	0x3ca709a2	0.020390335
11	0xbb919718	-0.0044430606
12	0xbc042cc2	-0.008067312
13	0xbc8326b4	-0.016009666
14	0x3c994c5c	0.018713169
15	0xbce522ba	-0.02797066
16	0xbc8898fb	-0.01667451
17	0xbc891d96	-0.01673774
18	0xbcfa930b	-0.030587694
19	0xbbdc1104	-0.0067158956
20	0x3b288bda	0.0025718124
21	0x3a07c93c	0.00051798276
22	0x3cd5ca96	0.026097577
23	0x3b4d27e0	0.0031304285
24	0x38eefcb1	0.00011395792
25	0xbc7e8c47	-0.015536374
26	0x3ca95b2a	0.020673353
27	0xbc80f03d	-0.015739555
28	0x3c4ac218	0.012375377
29	0xbc396a1c	-0.011316802
30	0x3cd1aad8	0.02559416
31	0x3ba4dd3a	0.005031255
32	0xbc9174fa	-0.017755974
33	0x3c12f395	0.008969207
34	0xbd1bd7da	-0.03804765
35	0xbcc28e55	-0.02374951
36	0xbb62c8a4	-0.0034604454
37	0xbc140129	-0.00903348
38	0xbbfb7643	-0.00767401
39	0x3c90ec7b	0.017690888
40	0x3c178eea	0.009250382
41	0xbbb600cc	-0.005554294
42	0x3cb2554b	0.021769186
43	0x3b0f147a	0.0021832273
44	0x3be64896	0.007027696
45	0x39ec4733	0.00045066475
46	0x3c47c8b2	0.012193846
47	0xbabf7684	-0.0014607464
48	0x3cbb04da	0.022829462
49	0xbb513f38	-0.003192855
50	0x3c243952	0.010023432
51	0x3d14e11c	0.036347494
52	0x3c810d76	0.015753489
53	0xbbfe4818	-0.007760059
54	0xbce83422	-0.028345171
55	0xbbf748d6	-0.0075465245
56	0xba15da0b	-0.000571639
57	0x3d02123e	0.03175568
58	0xbc802089	-0.015640514
59	0x3a946026	0.0011320158
60	0x3a641774	0.00087010046
61	0x3c22972f	0.00992374
62	0xbcbc86ec	-0.023013555
63	0xbc4052c3	-0.011738482
64	0xbb909c05	-0.00441313
65	0x3cd71ef2	0.026259873
66	0x3ca36068	0.019943431
67	0x3c9b8b28	0.018987253
68	0xbc433652	-0.011914806
69	0x3c3f183d	0.011663494
70	0xbc4cf0d0	-0.012508586
71	0xbcb399ae	-0.021923866
72	0x3c96fa53	0.01842991
73	0xbabad43f	-0.0014253928
74	0xbc65b781	-0.0140208015
75	0x3c4a0ba6	0.012331879
76	0xbc220597	-0.009889028
77	0xbb6698e3	-0.0035186342
78	0xbbec8fa4	-0.0072192717
79	0xbbee7c24	-0.0072779823
80	0xbc2e0514	-0.010621328
81	0xbc1acfc2	-0.009448947
82	0xbb9c90d1	-0.0047780056
83	0xbca8c624	-0.020602293
84	0xbd05a6ad	-0.032629658
85	0x3c1b72fa	0.009487862
86	0xbb772c37	-0.0037715563
87	0x3c773b06	0.015089756
88	0x39dd2a23	0.000421838
89	0xbc91605b	-0.017746141
90	0xba8339b2	-0.0010011701
91	0x3c69eed2	0.014278131
92	0xbcb306d3	-0.02185384
93	0x3bb612dc	0.0055564474
94	0xbc3c9a04	-0.01151133
95	0x3a906217	0.0011015561
96	0xbcd34c0d	-0.0257931
97	0xbc3e0a43	-0.011599126
98	0x3ccfc397	0.02536182
99	0xbcba909e	-0.022774037
100	0x3cfc202e	0.030777063
101	0xbc99f78a	-0.018794794
102	0x3b7b3e7d	0.0038336806
103	0xbbde8395	-0.006790588
104	0x3d0b3738	0.033988208
105	0xbc5cd25a	-0.013477886
106	0xbcbebf4e	-0.02328458
107	0xbcb65452	-0.022257004
108	0xbbc8bdda	-0.0061261477
109	0xbc42e95b	-0.011896457
110	0xbc046d89	-0.008082756
111	0xbc917ed0	-0.017760664
112	0x3a26b069	0.00063586846
113	0x3cb3b351	0.02193609
114	0x3b5fa1e5	0.0034123596
115	0x3bd722c3	0.006565423
116	0xbc860d45	-0.01636375
117	0x3ca76261	0.020432653
118	0xbc85859d	-0.016299063
119	0x3cab5403	0.020914083
120	0xbc400eab	-0.011722247
121	0xbcabad30	-0.020956606
122	0xbcfb1814	-0.03065113
123	0xbb9d8f5c	-0.0048083495
124	0x3c0e3246	0.008678978
125	0xbc24127a	-0.010014171
126	0x3bdaf231	0.0066817035
127	0xbc7ee06f	-0.015556439
