checkpoint_critic_1.pth (torch_old, 185338 bytes, 5 tensors)

fcs1.weight f4 [256, 48]
000000 c0 39 c9 3e ec b2 84 3e e5 51 1e 3c ed 90 b3 be
       0.39301872 0.25917757 0.00966308 -0.35071507
000010 64 c4 40 bd b4 7e 45 bf 8e 92 d4 bb 6b fe a3 be
       -0.047062293 -0.7714646 -0.0064871972 -0.32030043
000020 a3 ad 72 3e e9 6c 79 be d3 36 b9 bc 69 fe 1a bd
       0.2369905 -0.24357952 -0.02260915 -0.03784028
000030 68 9c 65 be 46 4c 32 bd ab ad ab 3d 58 f7 98 bd
       -0.22422945 -0.04352977 0.08382734 -0.07469052
000040 95 db 80 3d 1d a0 1c bf 74 f3 85 b9 39 8a 6b 3d
       0.06291882 -0.61181813 -0.00025549124 0.057504866
000050 cb f9 9a be 22 df 08 3f 05 15 22 3d e4 70 03 bd
       -0.30268702 0.53465474 0.039570827 -0.032090083
000060 78 4c 02 3e 02 ea b4 3e 61 08 ef bb d5 6e c8 bd
       0.12724483 0.35334784 -0.0072947 -0.097867645
000070 9a c4 bd bc 11 d4 55 bf 71 e8 32 bd 93 0d 83 bd
       -0.023165036 -0.8352671 -0.043678705 -0.063990735
000080 39 63 9f 3c 19 fa 5c 3d fc 73 6e bc 3a eb 1f be
       0.019456493 0.05394945 -0.01455402 -0.15617076
000090 2d 79 33 3e 3e bb 8f bc 1a 9c 11 bd ae c1 cd bd
       0.17526694 -0.017545339 -0.03554926 -0.10046707
0000a0 03 5d 00 3c 67 24 0c be 66 d8 c9 3c ff 39 c3 bd
       0.007834676 -0.13685761 0.02463932 -0.09532546
0000b0 38 10 85 3e de 95 08 3f 66 33 01 3d 7b 6a 97 bc
       0.25988936 0.5335368 0.031543158 -0.018483391
0000c0 6a 9e a2 3e 64 16 1b be 1e 86 cd 3d 8d 2e a2 be
       0.31761485 -0.1514526 0.100353464 -0.3167614
0000d0 75 cb 5f be ec bb f9 bd bb b4 8b 3d 8b 19 7a be
       -0.21854956 -0.121940464 0.06821581 -0.24423806
0000e0 12 f5 76 3e ad 75 01 bd 60 19 fb bd c5 27 3b 3e
       0.24116924 -0.031606365 -0.12260699 0.1827689
0000f0 46 cd 16 be f0 c8 7e be 8a a1 05 be 46 82 4d 3e
       -0.14726743 -0.24881339 -0.13049904 0.20069227
000100 ad 9f 69 3d 85 0e e3 bd 44 16 2a 3d a2 d9 1d bc
       0.057037044 -0.11086754 0.04152514 -0.009634407
000110 ed 7f 9d bb 45 b7 04 bf d6 67 bb 3c 24 3e bd bd
       -0.0048065097 -0.5184215 0.022876661 -0.09240368
000120 de ec 08 3e 98 5d d0 bd fa a2 38 bd 7b 06 df 3d
       0.13371608 -0.101741016 -0.0450773 0.10889908
000130 84 99 0c 3e 3d c3 c9 bd 00 8f bb bd 90 80 c9 3d
       0.13730437 -0.09851692 -0.091581345 0.098389745
000140 ed d0 37 3e 2e 72 f5 bd bf d0 63 bd f0 42 fa 3d
       0.17950793 -0.11984669 -0.055618998 0.122197986
000150 52 a2 b2 3d ba 14 54 be 47 3f 86 bc 98 3f a8 3d
       0.087223664 -0.20711032 -0.016387595 0.082152545
000160 44 56 54 3e 23 ec 35 bd 63 08 0e 3b 75 f0 d5 bc
       0.20736033 -0.04441465 0.002167248 -0.026115635
000170 e1 7e 33 3c e7 29 e9 be de fe 97 bc 12 c7 f4 ba
       0.010955543 -0.4553978 -0.018554147 -0.001867505
000180 ab f7 da 3d da af 50 3f 92 23 03 3e 80 22 24 3e
       0.1069177 0.8151833 0.12806538 0.16028786
000190 21 97 b0 bc 9d 3f 93 be f3 65 e9 3d 0d 72 82 3e
       -0.021556439 -0.2875947 0.113963984 0.2547764
0001a0 eb 51 25 3e 33 ec 60 3f c0 f2 58 bd e7 ec 49 3d
       0.1614453 0.8786041 -0.05296588 0.049298193
0001b0 83 4b 4e bd f2 71 cb bd 00 ef 3c 3d 42 fe e4 3c
       -0.050364982 -0.09933843 0.046126366 0.02795327
0001c0 97 bf 2d 3e e4 7e 44 3f 9f 3e 3a bd 1e 38 24 be
       0.16967617 0.7675612 -0.045469876 -0.16037032
0001d0 f4 b8 9d ba 11 7a 09 bd e3 9d 37 3d c1 10 40 bd
       -0.001203327 -0.033563677 0.044828307 -0.046890978
0001e0 4d 72 d9 3d a6 53 8f 3c 39 36 84 bd de 2b 80 bd
       0.10617504 0.017495941 -0.06455655 -0.06258367
0001f0 3d 38 d9 3c 6c f1 8b be 82 63 86 3c 1e 8b 0f be
       0.026516074 -0.27332628 0.01640487 -0.14017913
000200 77 c7 d5 3c 91 5c 7d bd 70 fe 3c 3b ea 91 bc be
       0.026096089 -0.061855856 0.002883818 -0.36830074
000210 10 30 9a 3d 68 57 f4 bd 83 2d 34 bc f5 4a b8 be
       0.075286984 -0.11930734 -0.010997179 -0.35994688
000220 fd e4 46 3d 28 55 33 be 9d f5 44 3c 2c 77 52 be
       0.048558224 -0.17512953 0.012021449 -0.20553273
000230 71 34 b2 3c 6e 6f 54 3b 00 ad 06 3d 52 31 10 be
       0.021753522 0.003241505 0.03287983 -0.14081314
000240 c1 e5 f9 3d de e3 80 3e 4a 6b 8e 3c 29 40 00 bd
       0.12202025 0.2517385 0.017385144 -0.031311188
000250 21 86 f4 3d 4a 37 c2 3d 11 83 a1 bc 69 85 f9 bb
       0.119396456 0.09483202 -0.019715818 -0.0076147807
000260 15 b2 43 3e be 0d 51 3e 67 b6 15 bd 40 a5 52 bc
       0.19110902 0.20415398 -0.036550906 -0.0128567815
000270 cd 45 6a 3e 41 ad 82 bc 59 86 b9 3c d3 f8 00 be
       0.2287819 -0.015951755 0.02264707 -0.12594919
000280 1c dd 10 3e 00 5b 25 3e ec e6 f4 3c 35 9f 7b be
       0.14146847 0.16147995 0.029895268 -0.24572451
000290 eb fc ad 3e a9 72 a9 bd c0 78 ff bc 37 14 4d be
       0.33982024 -0.08273823 -0.031185508 -0.20027243
0002a0 39 22 1b 3e 8d 3a 63 be e9 0a 10 bd 74 47 0e 3d
       0.15149774 -0.22190304 -0.035166655 0.03473611
0002b0 e3 cf 1b be a0 b3 76 3b ae 3e 87 39 e8 b9 ab 3d
       -0.15216021 0.0037643686 0.00025795907 0.08385068
0002c0 0a a2 0e 3e 42 c1 85 be 92 95 4a 3d f6 72 0b 3e
       0.13929 -0.26124007 0.049459048 0.13618073
0002d0 d5 a6 68 be c7 3e 98 3c d7 69 6a bd 80 03 c0 3d
       -0.22719891 0.018584622 -0.057229843 0.093756676
0002e0 7a 39 9c 3e 06 3b 45 be fb 83 97 3c 0a 70 69 3e
       0.305126 -0.19260797 0.01849555 0.22796646
0002f0 f6 0a 9f be cc fc d3 bd b6 4c b9 3b 4d 80 57 3e
       -0.3106305 -0.103509516 0.0056548966 0.21045037
000300 58 60 a1 3e c5 48 12 3f 6d 95 93 3d 96 66 f3 3c
       0.31518817 0.5714229 0.07206235 0.029712003
000310 a3 ed 00 3d 80 14 c7 3b dc c5 a1 ba 17 04 9d 3b
       0.031476628 0.006075442 -0.0012342292 0.0047917473
000320 78 9b a6 3e aa df 15 3f e6 8c 77 bc 65 a5 e6 3c
       0.32540488 0.5854441 -0.015109276 0.028155038
000330 45 d3 0f 3d b0 94 8c bc 64 d7 16 bb 54 c8 ef 3d
       0.03511359 -0.017160743 -0.0023016566 0.117081314
000340 0d 55 88 3e 69 46 18 3f 02 65 fe 3c 5f f3 24 be
       0.2662739 0.5948244 0.031054024 -0.16108464
000350 a8 ca 0c 3e 4c 3a 8d bf 06 0a 9a 3d 72 1a 1e be
       0.13749182 -1.1033416 0.07521443 -0.15439776
000360 46 1c 55 bc 4d f5 63 be 14 8a 9a 3c ad e3 ef bd
       -0.013007229 -0.22261544 0.018864669 -0.117133476
000370 8e eb 55 bd f4 8e 90 3d bb 6e ba 3c 3a 43 d2 bd
       -0.052226596 0.07058516 0.022757879 -0.10266729
000380 d8 f4 46 3d d5 c1 3f be fc ae 45 3c ae e0 ac bd
       0.048573345 -0.18726285 0.012065645 -0.08441292
000390 33 57 4c 3d ed 35 d1 bd a4 e5 d6 3d 9b ce 63 3c
       0.049887847 -0.10215364 0.10493019 0.013904239
0003a0 a5 15 29 3e 0f ce 19 be d1 aa 6c 3c b4 4c ea 3d
       0.16512163 -0.15020011 0.014445023 0.11440411
0003b0 f2 46 ec bd 96 be 95 bf 9e 0e 98 3d 19 85 66 3d
       -0.11536969 -1.1698787 0.07424663 0.056279276
0003c0 e8 ee 3a be c2 75 9c be 4c 9e c6 3c a7 2c 79 3d
       -0.18255198 -0.30558592 0.024245404 0.0608336
0003d0 20 a5 02 3e 2c 5f d2 3e 75 c9 17 3d c1 de e3 3d
       0.12758303 0.41088235 0.03705736 0.11126471
0003e0 57 75 ca 3d 5a e2 f5 bc cd a9 f6 bc f3 bc a2 bd
       0.09885662 -0.03001516 -0.030110264 -0.079461955
0003f0 1f fa f0 bd 32 25 58 3c e1 7b 70 bc f4 dd 44 bd
       -0.11766457 0.013192462 -0.0146779725 -0.048063233

fcs1.bias f4 [256]
000000 fc 32 b7 bd 7d 47 8b bd 67 29 ae bd 78 7e 93 be
       -0.089452714 -0.06800745 -0.085039906 -0.28807425
000010 13 91 31 bd 03 62 ef bd e7 a5 8d be 26 6c de bb
       -0.043351244 -0.11688616 -0.27665636 -0.0067877946
000020 68 ad 10 be d0 ab 2e be 76 c5 0b be 6a 24 a2 bd
       -0.14128649 -0.17057729 -0.13649544 -0.07917102
000030 d8 46 b3 3c 6d 22 16 3e 60 16 d1 be b4 9c e9 bd
       0.021884367 0.1466157 -0.40837383 -0.11406842
000040 2b e3 88 be 91 76 81 be a5 44 9a be e5 98 3c 3d
       -0.26735815 -0.2528577 -0.30130497 0.04604425
000050 06 90 89 bd dd b7 79 be 89 58 7d bc e2 5a 1e bd
       -0.067169234 -0.24386545 -0.015463003 -0.03866089
000060 cc 7b 81 3e ec d8 cd bc bd f0 53 bd 6e a0 7c 3d
       0.25289762 -0.02512785 -0.051743258 0.061676435
000070 14 2b d4 bd a7 ed 8c be 45 c8 21 be eb c1 35 3d
       -0.10359779 -0.27525064 -0.15799053 0.044374388
000080 2c ad 5a 3e 23 6c 88 bd 56 18 69 3d d6 73 30 bf
       0.21355122 -0.066612504 0.056907974 -0.6892675
000090 be b6 d5 be 1b f2 79 bd 50 e9 4f be 34 d6 68 be
       -0.41740984 -0.061021905 -0.20303845 -0.22737962
0000a0 d6 de 2b be 23 6b 1c bd 38 dc cb bd 3d 9f 8b be
       -0.16784224 -0.03818811 -0.09954113 -0.27269927
0000b0 65 56 64 bd 6a 21 02 3e b8 d3 95 bd 13 38 89 be
       -0.055746455 0.12708059 -0.07315773 -0.26800594
0000c0 9c ab bd bd 47 fb 25 bd b5 3f 74 be 13 a7 7c bd
       -0.092612475 -0.04052284 -0.23852427 -0.061682772
0000d0 a4 52 90 bc ba 6d cd 3d 2b ec 93 be 69 b8 ae 3d
       -0.017617531 0.10030694 -0.2889112 0.08531267
0000e0 4b 92 74 be 62 a2 63 be c3 2e fb bd 58 0a 49 be
       -0.23883931 -0.22229913 -0.122647785 -0.19632852
0000f0 74 51 8e bd 15 4a 30 be 8b e4 73 be af dc a6 bd
       -0.0694913 -0.1721576 -0.23817651 -0.08147561
000100 44 3a ef bd 11 f6 30 3d 42 32 90 bd bc 7c 0e be
       -0.11681035 0.043203417 -0.07040836 -0.1391477
000110 45 7c 4a be 0d 00 2f bd c1 d4 3c 3d 8f c6 ac be
       -0.19773968 -0.042724658 0.046101335 -0.33745238
000120 b7 56 f3 bd 80 82 3d bd 54 d6 59 bd 59 7c b1 3e
       -0.11881774 -0.046267033 -0.053182915 0.34665182
000130 04 b0 17 bc 75 84 0b be 20 70 91 be ee 89 86 be
       -0.009258274 -0.13624747 -0.28405857 -0.26277107
000140 5c 3d ac be 10 57 4c be a0 4e aa be 40 c1 60 be
       -0.33640563 -0.19955087 -0.3326311 -0.21948719
000150 3b 25 3b be 26 7e 65 be 68 07 8a be e7 f0 47 be
       -0.18275921 -0.22411403 -0.26958776 -0.1952549
000160 26 31 1b 3d df d6 90 bd e1 c2 a4 be f8 b8 60 bd
       0.03788867 -0.070722334 -0.3217993 -0.0548639
000170 1f 68 e7 3d 77 aa 92 3d 76 8e 2a be b6 74 58 be
       0.112991564 0.0716142 -0.16655907 -0.21138272
000180 8d 8d 9c 38 0c c6 ac bd ab 53 bd 3d c5 c4 33 bd
       7.4650256e-05 -0.08436212 0.09244474 -0.043888826
000190 1c 3f 0e bd b4 96 f2 be 0d 8f c0 bb 61 29 eb 3d
       -0.034728155 -0.47380602 -0.005876428 0.11482502
0001a0 d7 59 72 be 76 8e 9d be 14 2b b8 bc e5 70 30 be
       -0.23667084 -0.30772752 -0.022481479 -0.17230566
0001b0 5e 0f 34 bd aa d9 b6 be 2f f8 5f be 02 c8 44 be
       -0.043959968 -0.3571294 -0.21872018 -0.19216922
0001c0 aa a5 0d 3d 3f 16 d0 bd 1d 55 4a be bc 33 5d be
       0.034581818 -0.10160493 -0.1975903 -0.21601766
0001d0 f9 6c 67 be b0 11 da bd 8c aa 99 be aa f9 c3 be
       -0.22600164 -0.10647905 -0.3001293 -0.38276416
0001e0 ce 7f 81 bd 29 bc d7 bc 75 fa 8e bd f7 48 89 bd
       -0.06323205 -0.026334839 -0.06981365 -0.0670337
0001f0 91 0f e8 3d 56 b1 0b bd d1 5b 3a be 4e 36 43 be
       0.11331094 -0.034104668 -0.18199088 -0.19063684
000200 40 01 86 bd ac f6 07 3e b2 3a b0 be fa 6c bb be
       -0.06543207 0.13277692 -0.3441978 -0.3660658
000210 5b 41 b2 bd 2d 17 48 be ea 60 8d bb 31 96 f7 3d
       -0.08703872 -0.19540091 -0.0043145316 0.120891936
000220 84 ee 05 be de cd 4d bd 66 c0 90 3d 55 39 9d be
       -0.13079268 -0.05024516 0.07067947 -0.30707803
000230 f3 27 11 bd a9 3b b3 be 64 56 df be 50 74 20 be
       -0.03543849 -0.35006455 -0.43620598 -0.1566937
000240 f2 91 f2 3c 79 e3 42 3b d6 99 2d be a0 fc c4 bd
       0.029610608 0.0029737635 -0.16953215 -0.09618497
000250 56 80 10 bd 94 3f d6 bd b2 41 a6 bc 60 f6 3f 3e
       -0.03527864 -0.10461345 -0.020294998 0.18746328
000260 63 b4 1f be 69 42 45 be 0d 8a 11 bd 49 a5 04 be
       -0.15596156 -0.19263615 -0.035532046 -0.12953676
000270 97 16 bc 3c 0c 03 31 3c 2a db 2c be 95 4a 04 be
       0.02295999 0.010803949 -0.1688048 -0.12919076
000280 9a 49 66 be ef dd e2 3a 67 f5 80 be 75 34 57 be
       -0.22489014 0.0017308573 -0.25187227 -0.21016105
000290 0a 39 8b be 0f 92 8d 3d 76 5b 81 be 2a e5 5d bc
       -0.27191955 0.06912624 -0.25265092 -0.0135434065
0002a0 c3 e4 01 3e 3a 82 1f be c9 a9 1e 3e b7 c9 e5 bd
       0.12684922 -0.15577021 0.15494455 -0.11220115
0002b0 c9 12 90 be 22 88 18 be 89 4c f9 bb ed a7 fd bd
       -0.28139332 -0.1489568 -0.0076080007 -0.12385545
0002c0 9b b2 40 be 0a 19 01 bf 89 89 7e be 6d e2 05 be
       -0.18818133 -0.5042883 -0.24857153 -0.13074656
0002d0 fc 09 d2 bd db 93 58 be 7f 30 05 be 38 f0 f6 be
       -0.102558106 -0.21150152 -0.13006781 -0.48230147
0002e0 2d c5 93 bc 9d 07 d9 bd 9d ee 18 3e 62 d4 ca bd
       -0.018038357 -0.10597155 0.14934774 -0.0990379
0002f0 03 63 3e be 91 8f 3b be fc b4 f7 3d 2c 1b a0 3d
       -0.18592457 -0.18316485 0.12095067 0.078176826
000300 ff d3 6f 3d fe 5f 51 be 46 fa 5d bd 4c 16 5e bc
       0.058551785 -0.20446774 -0.054193757 -0.013555121
000310 2f e6 d8 be b0 0f 9f be 79 0a a5 be 5c 16 de bd
       -0.42363116 -0.31066656 -0.32234553 -0.108441085
000320 92 13 6f be 8c 02 a7 3e 17 31 46 3b 85 e0 a9 be
       -0.23347309 0.3261913 0.0030241662 -0.33179107
000330 00 a9 b0 be e5 7d 12 3e cf 42 d8 bd 1d 79 ba be
       -0.34503937 0.14305837 -0.10559618 -0.36420527
000340 af fd f2 bd 4b a3 5d 3d 9f 8a 0e be a3 0d cc be
       -0.118647926 0.054110806 -0.13920067 -0.39854154
000350 f5 39 13 3e 8f 92 46 be ff d2 c4 bd 8f 23 fb 3d
       0.14377578 -0.19391845 -0.09610557 0.12262642
000360 da 5e 75 be 17 8f cd 3d 7b 2b 8a be f1 ae 42 be
       -0.23961964 0.10037058 -0.26986298 -0.19012047
000370 17 01 df bb 0d 46 40 be 49 b0 1d be 3a 34 ab be
       -0.00680555 -0.18776722 -0.15399279 -0.33438283
000380 72 f2 83 3d 8f b8 ed bc 4d 92 c8 be 3f 9c c4 3c
       0.06442727 -0.029018668 -0.3917412 0.024000285
000390 1f 20 8d 3d 52 5e e4 be 5d c7 c6 bd ae 9a 3b bc
       0.06890892 -0.4460321 -0.09705994 -0.011450453
0003a0 9e dc a4 be 38 f7 e0 be 00 c6 92 3d b8 2a 23 be
       -0.32199568 -0.43938613 0.07166672 -0.15934265
0003b0 5f f9 c4 bd 2d 06 5e 3e eb a1 61 bc 6c 88 98 be
       -0.09617876 0.21682043 -0.013771514 -0.29791582
0003c0 0c 9b 8a bd 5a 62 be be a8 b0 11 be 1e ec 6a 3e
       -0.06767854 -0.3718441 -0.14227545 0.22941634
0003d0 55 6c 7d be a8 84 8b be d4 db bf bd 1a 93 c9 be
       -0.24748357 -0.27249646 -0.09368101 -0.39370042
0003e0 94 2a c0 bd b6 8e 5d 3d a1 36 99 be 61 92 25 3e
       -0.09383121 0.054091178 -0.2992449 0.1616912
0003f0 80 f4 49 be ef f5 8f be 9c 9c 7a bc b8 48 b1 be
       -0.19722176 -0.2811732 -0.015296128 -0.34625793

fc2.weight f4 [128, 260]
000000 dd a6 ac 3d e6 a6 dd bc 25 9f 16 be c7 b1 c3 bd
       0.08430264 -0.027057122 -0.14709146 -0.09555393
000010 8e f0 14 be 1a 08 f5 3c a2 4b 9e bc 69 56 a8 bd
       -0.1454489 0.02991109 -0.019323174 -0.082196064
000020 01 ae 92 bd cb 9e b8 bd 11 90 30 be 3d 4b d3 bd
       -0.07162095 -0.09014662 -0.17242457 -0.10317085
000030 ec 13 66 3d 84 91 26 be 32 f1 b8 bd 7b 77 29 3e
       0.056171343 -0.16266447 -0.09030379 0.16549484
000040 c0 27 1c 3c d4 fd 6f 3d 76 80 da bd 3e a0 82 3d
       0.0095309615 0.05859168 -0.10669033 0.0637822
000050 92 36 3c 3c d7 08 1f be a3 9d b6 bd e6 d0 fa 3c
       0.01148762 -0.15530716 -0.089167856 0.030617189
000060 13 26 0b 3d c9 eb 11 be 9a b4 1d be 28 f6 80 bd
       0.033971857 -0.14250101 -0.15400925 -0.062969506
000070 f1 b5 57 be 7b 69 91 3d a6 f8 cf 39 f1 2c b9 3d
       -0.21065499 0.07100197 0.00039667374 0.09041775
000080 89 55 b1 be 86 b0 3d be 5a 18 63 be 06 eb 32 bd
       -0.3463557 -0.1852437 -0.22177258 -0.043681167
000090 1e 58 bc 3a 34 c1 c4 3b 7d 18 a0 bc 46 df 2e be
       0.0014369523 0.006004477 -0.019542927 -0.1707736
0000a0 f0 31 46 be 5f af b9 3c dc 08 79 3c 25 3f 51 bd
       -0.19354987 0.022666631 0.015199866 -0.05108561
0000b0 3c 6b 27 be 16 a6 18 3d 79 39 f0 bd b4 b3 35 3d
       -0.163495 0.037267767 -0.11729712 0.04436083
0000c0 0a 7b fa bd c5 be e1 bc c7 56 cf 3d 93 de 19 bc
       -0.12230499 -0.027556786 0.10123973 -0.009391445
0000d0 d9 83 4d be a8 4d 38 3d f7 11 9e bd 4d e8 1a be
       -0.20069827 0.044995934 -0.0771827 -0.15127678
0000e0 eb 98 ec 3b 17 c1 fd 3c b4 14 37 be 91 c1 92 3d
       0.0072203777 0.030975861 -0.17878991 0.07165826
0000f0 5b c1 2a bd 70 dd 18 bd c9 19 4c be be f7 a0 bd
       -0.041688304 -0.037320554 -0.19931711 -0.07859753
000100 3a 36 b0 bd 1b ab 3c be 86 22 30 be 8b f9 13 bd
       -0.08604093 -0.18424647 -0.1720067 -0.036126655
000110 ff 77 8d 3d 46 13 f9 bd 3d ef a7 bd bb 23 93 3b
       0.06907653 -0.12161879 -0.08199928 0.0044903434
000120 a7 b3 48 3c 8a aa ae bd 01 fa 80 be 9c 3b d0 3d
       0.012249864 -0.085286215 -0.25190738 0.101676196
000130 aa 07 47 bd 53 81 5b bd 20 bd 88 be e6 f4 28 3d
       -0.048591293 -0.05359013 -0.2670679 0.04124918
000140 98 e5 8a 3c 46 56 5e bd 7e f0 a9 bc 03 ea 0e be
       0.016955182 -0.054281496 -0.020744558 -0.13956456
000150 7d 35 3d bd 94 11 51 be 00 84 15 be ce 6c 79 3b
       -0.04619359 -0.20416862 -0.14601135 0.0038059237
000160 b3 45 e7 bb b2 d0 7e bd 97 ea 37 3b 2c f9 60 bd
       -0.0070578693 -0.062210746 0.002806341 -0.05492513
000170 a3 14 91 bd 1c e2 b6 bc 43 0f 00 be ce 50 53 3d
       -0.07084014 -0.022324614 -0.12505822 0.051590733
000180 27 4f 4f 3d 46 ab 71 bd b0 f3 38 bd 02 74 c3 bd
       0.050612595 -0.05900123 -0.045154274 -0.09543611
000190 ae 8a ba bc df 76 75 bd c0 61 f5 3c 5a e8 95 be
       -0.022771206 -0.059927817 0.029953837 -0.29278833
0001a0 69 7a e8 3d 24 5b af bd 6f 5a d9 bd f6 70 0a bb
       0.11351473 -0.085623056 -0.10612952 -0.002112446
0001b0 7c dd e7 bc 61 1d 03 bc 87 03 19 be 5a 2b 78 be
       -0.028303854 -0.00800261 -0.14942752 -0.24235287
0001c0 41 56 ed be 29 41 b3 3b 14 5b c4 bd 3b 28 ff bc
       -0.4635487 0.005470414 -0.09587684 -0.031147113
0001d0 65 f8 75 bd d4 d5 d8 3d d5 c9 72 3b 3b 62 e1 bd
       -0.06005134 0.105876595 0.003704657 -0.11005064
0001e0 7f 6d 99 bc 7c 46 0b be 59 97 99 3c 85 eb 8e bd
       -0.01872897 -0.13601106 0.018748926 -0.069785155
0001f0 41 3b 1d be 66 cc 2d be 4a 58 82 3c 87 c9 57 be
       -0.15354635 -0.16972503 0.01591124 -0.2107297
000200 51 8c b0 bd 4b fc a0 be 6c 5b b9 bc 8f 77 ba bd
       -0.08620513 -0.31442484 -0.022626601 -0.09104835
000210 91 b7 32 3d a3 dc 06 bd 74 76 2e 3d 97 68 05 be
       0.043632094 -0.03292526 0.042593434 -0.13028179
000220 e9 dd 84 be c0 1e c1 bd 31 29 26 3d d0 31 2b 3c
       -0.25950554 -0.09429693 0.040566627 0.010448888
000230 98 a7 fd bd 50 b7 60 3d 37 95 02 3e 51 7b 59 be
       -0.123854816 0.05486232 0.12752233 -0.21238448
000240 36 f2 73 bd de 91 c7 bd 2f 48 2e 3d 8b f4 39 be
       -0.059557162 -0.09744619 0.04254931 -0.18159692
000250 b3 b3 6a bc be b4 e2 3d 20 da 08 3e ea e2 18 be
       -0.01432507 0.1106963 0.13364458 -0.14930311
000260 42 2c c9 bd 3d b1 8f be e3 3b 60 be 93 f6 ab bc
       -0.09822895 -0.2806491 -0.21897845 -0.0209916
000270 28 5b a9 bc 60 59 30 3d bc c1 46 3c 8e 60 a2 be
       -0.02067335 0.043053985 0.012131151 -0.3171429
000280 a9 6f d3 bd ae e8 b5 bd 79 cd af bc e4 d3 3b bd
       -0.10324032 -0.08882271 -0.021460282 -0.04585637
000290 5e cb b2 bb 8a bf b6 bd 55 b5 06 3d f0 4a 33 be
       -0.005456372 -0.08923252 0.032887775 -0.17509055
0002a0 00 e2 2c be c3 de 5c bd 08 c5 bf bb 00 32 dc 3d
       -0.16883087 -0.05392338 -0.0058523454 0.10751724
0002b0 3f 29 cd 3b 5c ae ac bc 1f 8e df bd 4b c5 c0 3d
       0.0062610204 -0.021079235 -0.10915779 0.09412631
0002c0 e1 75 2a be 8b 40 8b bd 0b d7 1e be 96 de 04 3e
       -0.1664653 -0.0679942 -0.1551172 0.12975535
0002d0 17 00 5a bd c3 96 8f 3c 86 4f 0c be 10 70 ac bd
       -0.053222742 0.017527943 -0.13702211 -0.08419812
0002e0 12 ad f5 bc 38 9c 43 3c f0 1e 71 3d fe 31 9a bd
       -0.029989753 0.011939101 0.058867395 -0.075290665
0002f0 b5 85 68 3c e5 cd 24 3d 5a 34 c2 be 4e db fa bd
       0.0141920345 0.04023542 -0.37930566 -0.1224886
000300 c7 5f bc bd 65 b4 c3 bc 32 a1 a3 3d 40 cd 03 be
       -0.091979556 -0.02388973 0.0798973 -0.12871265
000310 1f b6 3e be 50 cd 1f 3d 10 8d 00 be 2d 2f 5f 3b
       -0.18624161 0.03901416 -0.12553811 0.0034055219
000320 a8 e0 96 bd 69 7c 77 3e 45 9c 54 be 63 3c 17 be
       -0.073670685 0.24168552 -0.20762737 -0.1476913
000330 f3 c6 8f bd c1 9a 03 be fd c9 ee bc 34 33 02 be
       -0.070203684 -0.12852003 -0.02914905 -0.12714845
000340 cb 10 8d bc 6d d0 a2 bd 64 77 5b bd 21 8c d6 3b
       -0.017219922 -0.0794991 -0.053580657 0.0065474664
000350 18 8f d7 bc e9 a5 67 bb e7 f4 19 be cc 89 01 be
       -0.02631335 -0.0035346693 -0.15034829 -0.12650222
000360 bd c6 b9 bd 1c e1 2a be 47 2b 84 3d 6f 0e 29 be
       -0.090711094 -0.16687435 0.06453567 -0.16509412
000370 e6 fd 25 be 77 7c 11 be 3c f9 7f be dd 2f 9b bd
       -0.16210136 -0.14207636 -0.24997419 -0.075774886
000380 69 47 d6 bd 9d 7f 84 be 0b d0 2a bc a9 fe 74 be
       -0.10462839 -0.2587861 -0.010425578 -0.2392527
000390 9d 42 b5 3c 9e 6a f1 bd 2d d1 4f be f9 11 b3 3d
       0.02212649 -0.11787914 -0.20294638 0.087436624
0003a0 dd eb 09 bd f5 c2 ab bd 6e 36 b8 bd d7 9b 46 be
       -0.033672202 -0.083867945 -0.08994757 -0.19395386
0003b0 4a 1b e6 bd 60 f4 81 be e2 f2 76 3d 27 48 8c bd
       -0.11235674 -0.25381756 0.060290225 -0.068496995
0003c0 a8 49 a6 3d d1 eb 3c bd 70 38 cd bd ad 9b 00 3d
       0.081195176 -0.04612333 -0.1002053 0.031398464
0003d0 ee 8d 26 be c1 46 0c 3e 09 16 af bd 5b e2 1c bd
       -0.1626508 0.13698865 -0.08549125 -0.038301807
0003e0 f7 5e 00 bd 5b ba 86 bd 46 05 3d bc 38 4b ed be
       -0.031340566 -0.06578513 -0.011536902 -0.4634645
0003f0 8a c7 14 3d 42 73 85 3b 21 fc c4 3c 05 13 52 bd
       0.036323108 0.0040725777 0.024046006 -0.05128767

fc2.bias f4 [128]
000000 33 90 84 3d a6 70 a1 be 95 72 39 be 9a 98 22 be
       0.06472816 -0.31531256 -0.18110116 -0.15878525
000010 c5 7d 8c bd 35 33 73 bd 19 21 cd bd 45 d4 49 3d
       -0.06859926 -0.059375007 -0.100160785 0.0492747
000020 28 0a 8a bd 06 b5 10 be 0c 49 52 be 57 8b 70 3e
       -0.067402184 -0.14131555 -0.20535678 0.23490654
000030 68 f3 5f 3e b5 65 1d be 4d 56 5a be 44 c2 1a be
       0.21870196 -0.1537083 -0.21321984 -0.15113169
000040 79 d2 31 3d e0 25 2b be da 9f a5 bd d1 51 72 bd
       0.043413613 -0.16713667 -0.0808713 -0.059160057
000050 02 5c b5 be 97 1b 13 be 94 08 eb bd 3e 78 c9 3d
       -0.3542176 -0.14365993 -0.114762455 0.098373875
000060 e4 fe 8f bd 8b 75 a6 be 45 25 09 be 08 b2 cf bd
       -0.070310384 -0.32511553 -0.13393123 -0.10141379
000070 a9 22 a3 bd 32 69 0a be e2 11 65 be dd d7 b0 bd
       -0.07965595 -0.13516691 -0.22370103 -0.08634923
000080 e2 76 75 be 63 67 42 3c cb ff 32 be 11 cc 88 be
       -0.23971131 0.01186547 -0.1748039 -0.2671819
000090 a4 12 13 be 39 16 71 be 0f 9f f0 bc 2c 2c fd bd
       -0.1436258 -0.23543634 -0.02937272 -0.12361941
0000a0 0a 45 9a bc 51 1e 34 be eb 7a 9b bd f3 0d 0d be
       -0.018831749 -0.1758969 -0.07591804 -0.13774852
0000b0 71 05 5c be 13 5d f6 3d 55 e5 00 be 6a cf 1b be
       -0.2148645 0.12029471 -0.12587483 -0.15215841
0000c0 97 25 d6 bc 38 98 82 be b7 33 7b bd 2d 3e 35 be
       -0.026140971 -0.2550676 -0.061328616 -0.176995
0000d0 17 d5 5f 3d 88 ae 1b be a4 70 10 be 5a e5 95 bd
       0.054646578 -0.15203297 -0.14105469 -0.07319136
0000e0 75 f9 3e be 85 3d ae bd a1 63 38 be 81 ca 33 be
       -0.18649848 -0.08507828 -0.18006755 -0.17557718
0000f0 de 50 29 be f0 cf df bd 4e 4d ce bd cf f7 63 bd
       -0.16534755 -0.10928333 -0.100733384 -0.05565625
000100 ab 12 a5 bd d0 d1 75 be 9a 44 e7 bd 8d ed 15 be
       -0.08060201 -0.24005818 -0.112923816 -0.146414
000110 72 b6 ba bd 08 3f 40 bd 33 ae 45 be 95 7a a3 bd
       -0.0911683 -0.04693511 -0.19304733 -0.07982365
000120 7f 82 83 bd cd 36 93 bd c7 92 fd 3d cb 5b 18 be
       -0.064213745 -0.07188187 0.12381511 -0.14878766
000130 97 d8 cb bd e7 5c a0 bd 70 cf 07 be 81 ac a5 bd
       -0.099534206 -0.0783022 -0.13262725 -0.08089543
000140 ac 5a e3 bd ac 6e 18 be 54 75 b6 3c 22 6f 87 bd
       -0.11101279 -0.14885968 0.022272743 -0.06612994
000150 58 05 51 be ef e9 b4 bd 4c 69 84 be 6b d6 9b bd
       -0.20412195 -0.08833682 -0.25861585 -0.07609256
000160 93 1a 4b be 73 0d 35 be 7b 44 98 bd 69 3d 12 3d
       -0.19834356 -0.17680912 -0.074349366 0.035703097
000170 cc a8 65 be c3 49 35 be 73 f7 fe bd 2b 61 45 be
       -0.22427672 -0.17703919 -0.12449541 -0.19275348
000180 04 bd 8b be 8d 4d da bd e5 0e 04 be a1 50 6f be
       -0.27292645 -0.10659323 -0.12896307 -0.23370601
000190 2b 0e 9e bd f5 5e 7c bd 83 f9 0e be 6c fe 8e bd
       -0.07717546 -0.061613996 -0.13962369 -0.06982121
0001a0 85 46 2b be 10 ef 34 3e 7a 12 6a be 5a 6f 4e bd
       -0.1672612 0.1766932 -0.22858611 -0.050399162
0001b0 75 d6 75 be 6f b6 1b be 8d 8f 05 be d4 be 2b be
       -0.2400759 -0.15206312 -0.13043042 -0.16772014
0001c0 18 57 db 3d 06 40 1c be 96 7c 05 3d 29 33 98 be
       0.10709971 -0.15258798 0.032589518 -0.29726532
0001d0 05 a4 16 3e 3f b7 77 be e2 8d 98 be 10 5d fa bd
       0.14711006 -0.24190997 -0.29795748 -0.122247815
0001e0 69 60 aa bb 80 d1 15 be 09 34 ac bd 84 65 67 be
       -0.0051994813 -0.14630699 -0.084083624 -0.22597319
0001f0 b5 16 29 be d0 66 41 be 87 cf dd bd 1f 2a 08 be
       -0.16512568 -0.18886876 -0.10830598 -0.13297318

fc3.weight f4 [1, 128]
000000 1d ef c4 3c df 03 4c bc c7 3b 2c 3c 06 b5 8a bc
       0.0240398 -0.012452095 0.010512299 -0.016932022
000010 0e 40 37 bc eb f3 f3 3c 68 84 99 3c ef d9 cd 3c
       -0.011184705 0.029779395 0.018739894 0.025128333
000020 9c 31 cc 3c ee 2f cb 3c 90 0f 92 bc 63 61 25 bc
       0.024926 0.024803128 -0.017829686 -0.01009402
000030 c4 9c 2d 3c 41 23 e2 bc 4f 42 cb 3c 60 9b 04 bd
       0.010596458 -0.027604701 0.024811892 -0.03237474
000040 eb 25 65 bc fc f6 87 3c 5a 89 cc bc 8d 5e 6f bd
       -0.013986091 0.016597264 -0.024967838 -0.05843978
000050 c0 62 2f bc fa a5 01 bd 27 58 c7 bc d8 4f 7f 3c
       -0.010704696 -0.03165243 -0.024334027 0.015583001
000060 71 94 9b 3b bf f1 47 bb 1c bb 84 3c 6e ec b1 bc
       0.00474792 -0.0030509082 0.016202502 -0.021719184
000070 2a 30 f9 3b a4 33 ed bc 3a 62 f1 bc 8a 8a 48 3c
       0.0076046186 -0.028955288 -0.029465783 0.012240062
000080 98 96 0d bc 20 74 f4 bc 92 68 90 bc 06 ef 2a bc
       -0.008641861 -0.029840529 -0.017627988 -0.010432964
000090 54 86 fd bc 9a 9f 84 bc 2c 45 41 bc fe 7b b7 3a
       -0.030947842 -0.016189385 -0.011796277 0.0013998745
0000a0 be 4f 14 3c e8 7a 46 bc cd 23 23 bb 4e 58 c3 bb
       0.009052215 -0.012114264 -0.0024893165 -0.0059614545
0000b0 7d 18 38 3d b4 07 51 3c 4b fa 7c bc c5 d4 c4 39
       0.04494523 0.012758184 -0.015440534 0.0003754256
0000c0 08 32 99 3c d0 f7 5f 3b ef 8a 2d bb cd 70 31 3d
       0.018700615 0.0034174807 -0.0026480516 0.043320466
0000d0 75 1a 45 3c e9 0c 24 bc 2b aa d5 bc 39 2d 45 bd
       0.012030234 -0.010012844 -0.026082119 -0.04813883
0000e0 97 41 d7 3b d2 c5 71 bc b2 ef b8 3c 94 1b 47 bc
       0.006569098 -0.014756637 0.022575233 -0.012152571
0000f0 19 2e 04 bc 5d 92 ab 3c ef d2 32 bc c6 01 b6 3c
       -0.008067631 0.020943815 -0.010914548 0.022217643
000100 6a 6b 38 3d bd 8e 03 3d 8d e7 27 3d 9f 42 ae bc
       0.045024313 0.032118548 0.04099231 -0.021272002
000110 10 e5 31 bb ca c5 10 3c cc 86 c5 bc ba 12 55 bc
       -0.0027144589 0.008836219 -0.024112128 -0.013004953
000120 5c 20 8f bc 26 33 e3 3b 07 88 9a 3c 5a bd 02 bc
       -0.017471485 0.0069335876 0.018863691 -0.007979715
000130 91 8f 9c bc d6 f6 ad 3b 8c ae 8f bc 5c 1d b7 3c
       -0.019111427 0.005308966 -0.017539285 0.022352867
000140 03 4c 18 3d c5 72 f6 3b 3c 77 c5 bb 1a 1f c6 bc
       0.037181865 0.007521006 -0.0060261767 -0.024184752
000150 ae 3d 8b bc b9 cc 81 bc 37 da b7 bc 9f 28 75 bc
       -0.016997185 -0.01584469 -0.02244292 -0.014963298
000160 7a 9f 94 bc 1d bb d9 b8 dd 08 f6 b8 d3 02 7d 3b
       -0.01814245 -0.00010382219 -0.00011731845 0.003860642
000170 86 58 92 3c 43 48 3d 3b 75 bd 1f bd 9e 3d c2 bb
       0.017864477 0.0028882183 -0.03899904 -0.0059277555
000180 44 0c 73 bc a5 4e c9 bb 32 54 9b 38 58 da 19 bd
       -0.014834467 -0.0061434084 7.4066586e-05 -0.037561744
000190 45 47 09 3c 7f e7 87 3c 67 26 9f bc b2 13 37 3c
       0.008378808 0.016589878 -0.019427491 0.011174129
0001a0 7d 80 89 bc 49 22 02 bc c7 4e 70 bc da bc 82 3c
       -0.0167849 -0.0079427445 -0.0146672195 0.015959192
0001b0 a1 6d 0c 39 6f 90 87 bc 9d ec 97 bc ee 16 43 bc
       0.0001339228 -0.016548363 -0.018545443 -0.011907322
0001c0 42 bb b9 3c 4e ac 3b 3c ee 98 75 3b 50 d9 ac bc
       0.0226723 0.011454655 0.0037475186 -0.021099716
0001d0 3c 96 70 3c 09 56 6e bc 7f c7 42 bb 78 2a f2 bb
       0.014684256 -0.01454688 -0.002972096 -0.0073903166
0001e0 2b c8 12 bd 99 5c 79 3c 1a 8e 12 3c 2f 3c 2d bb
       -0.035835426 0.015219831 0.008945012 -0.0026433577
0001f0 2a 55 5c bd 27 13 84 bc 33 32 05 bc 28 40 95 bc
       -0.053792156 -0.016122414 -0.008129644 -0.018219069
