checkpoint_actor_1.pth (torch_old, 183788 bytes, 6 tensors)

fc1.weight f4 [256, 48]
0	0xbce78dbc	-0.028265826
1	0xbdb78a94	-0.089619786
2	0x3cd14702	0.025546554
3	0xbf26456d	-0.64949685
4	0xbd922ef5	-0.071378626
5	0xbe687a16	-0.22702822
6	0x3cfab17e	0.030602213
7	0xbf189d73	-0.5961525
8	0xbc7cd6b0	-0.015432045
9	0xbdb00edf	-0.085965864
10	0xbe230c13	-0.15922575
11	0xbedbbb51	-0.4291635
12	0xbdc0a1ae	-0.09405838
13	0xbe2e35f4	-0.17012769
14	0xbdc77b24	-0.09740284
15	0xbead473a	-0.33843404
16	0x3d8334dd	0.06406567
17	0xbe672779	-0.22573651
18	0xbcfcf321	-0.030877652
19	0xbf62aea2	-0.8854772
20	0xbdaf2cfc	-0.08553502
21	0x3c751413	0.014958399
22	0x3bfba1a3	0.0076791807
23	0xbf50bc69	-0.8153749
24	0xbcdad82f	-0.026714412
25	0xbe0e9937	-0.13925634
26	0xbc50fcaf	-0.012755557
27	0xbf7216fe	-0.94566333
28	0x3d8d6f9a	0.06906052
29	0xbe8f528b	-0.27992663
30	0x3da805ee	0.08204256
31	0xbf70add0	-0.94015217
32	0x3cce2425	0.02516372
33	0xbe3813b3	-0.17976265
34	0xbdc8183d	-0.09770248
35	0xbed56c44	-0.41684163
36	0x3d97cb87	0.07411867
37	0xbe2c6fca	-0.16839519
38	0xbe05afcf	-0.13055347
39	0xbebd568d	-0.36980096
40	0x3d2abb3c	0.041682467
41	0xbdeecd25	-0.11660222
42	0xbe076204	-0.13220984
43	0xbeaa4e02	-0.3326264
44	0x3dc1f2f0	0.09470165
45	0x3ca3863f	0.019961474
46	0xbdaf395e	-0.08555864
47	0xbe99c8e8	-0.30036092
48	0x3b90cb8f	0.0044187973
49	0x3e61351a	0.21992913
50	0x3b3150db	0.002705625
51	0xbe12864e	-0.14309046
52	0xbdbee454	-0.09320894
53	0xbeb82b1a	-0.35970384
54	0x3d121e64	0.035673514
55	0xbdf41de4	-0.11919764
56	0x3c0f1260	0.008732408
57	0x3e4ac7f0	0.19802833
58	0xbe1f875b	-0.15578978
59	0xbe219bfa	-0.15782157
60	0xbe3f0b56	-0.18656668
61	0xbf05e8e5	-0.52308494
62	0xbd88660c	-0.06660089
63	0xbdf390f4	-0.11892882
64	0xbccbf507	-0.024897112
65	0x3e4b86a9	0.19875588
66	0xbde08057	-0.10961979
67	0xbe7caa88	-0.24674428
68	0xbe4c0415	-0.19923432
69	0xbf7b82d4	-0.982465
70	0xbdfdf9a2	-0.12401129
71	0xbe95494c	-0.29157484
72	0xbe0f2354	-0.1397832
73	0x3e17537c	0.1477794
74	0xbdf171d3	-0.11789288
75	0x3e08f407	0.13374339
76	0x3d3b6f23	0.045760285
77	0xbebaeac0	-0.36507225
78	0xbdf960cd	-0.121766664
79	0x3dac877c	0.08424279
80	0xbde47aec	-0.11156258
81	0x3d3da55a	0.04630027
82	0xbde0d309	-0.10977752
83	0x3ba0cad5	0.004906992
84	0x3e39d49f	0.18147515
85	0xbf2199e1	-0.63125426
86	0xbe0bee9a	-0.13665238
87	0xbd786f6c	-0.060653135
88	0xbdba5b4e	-0.09099446
89	0x3e475c0e	0.1946871
90	0x3e162cf0	0.1466558
91	0x3e192502	0.14955524
92	0x3dc48f33	0.095976256
93	0xbf752c0c	-0.95770335
94	0x3d9b59db	0.07585498
95	0x3e41deba	0.1893262
96	0xbd1fe6b4	-0.039038375
97	0xbe847c6f	-0.25876185
98	0xbdcb98a3	-0.099412225
99	0xbdf582d8	-0.11987847
100	0xbe386275	-0.18006308
101	0x3e02151d	0.12703367
102	0xbe024375	-0.12721045
103	0xbcddaedf	-0.027060924
104	0xbcc6571d	-0.02421146
105	0xbe95e742	-0.29277998
106	0xbd972fe7	-0.073821835
107	0xbe408322	-0.18800023
108	0xbec56bda	-0.38558847
109	0x3e23b895	0.15988381
110	0xbdd61a4f	-0.10454237
111	0xbe8a45f2	-0.2700649
112	0xbd68ccf1	-0.056836072
113	0xbe9b0a24	-0.30281174
114	0x3d995224	0.0748637
115	0xbec5b25a	-0.38612634
116	0xbefb763b	-0.4911364
117	0x3e09732e	0.13422844
118	0x3d725598	0.05916366
119	0xbebe1c51	-0.3713098
120	0xbbe8d24e	-0.0071051484
121	0x3d4e6a4a	0.050394334
122	0xbe915616	-0.2838599
123	0xbd8d279d	-0.06892321
124	0x3e13f4a4	0.14448792
125	0x3e016823	0.12637381
126	0xbe5ce162	-0.21570352
127	0xbdbd20d4	-0.09234777
128	0xbdccb693	-0.09995761
129	0x3d955779	0.07292075
130	0xbe034f04	-0.12823111
131	0xbe85b36a	-0.26113445
132	0x3eae1811	0.34002736
133	0x3e34f70f	0.1767237
134	0xbd881bf0	-0.06645954
135	0xbeb815d6	-0.3595416
136	0xbd09f9e2	-0.033685572
137	0xbba6820f	-0.005081422
138	0xbdc4f262	-0.09616543
139	0xbe9619a5	-0.2931644
140	0x3ef37121	0.47547248
141	0x3dcd472c	0.100233406
142	0x3c2ac62e	0.010423226
143	0xbea65aaf	-0.3249106
144	0x3e0f3cc3	0.13988023
145	0xbc626c76	-0.013819804
146	0xbb03d0ec	-0.002011354
147	0xbe48304c	-0.19549674
148	0x3e29f8d0	0.1659882
149	0x3e0c9146	0.13727292
150	0x3d3b56cc	0.045737073
151	0xbe85b6ab	-0.26115927
152	0x3d5ac4ee	0.053410463
153	0xbe44137a	-0.19148055
154	0xbd632606	-0.055456184
155	0xbdbbe8bf	-0.09175252
156	0x3eb15e5f	0.34642312
157	0x3e80bfe5	0.25146404
158	0xbd9f8511	-0.07789052
159	0xbd8d6de2	-0.06905724
160	0x3e035a8e	0.12827513
161	0xbe03481d	-0.12820478
162	0xbcf9725c	-0.030450039
163	0xbd1b25b6	-0.03787776
164	0x3ed609c1	0.41804317
165	0xba8429ab	-0.0010083219
166	0xbdff121f	-0.12454628
167	0xbc8a6e0d	-0.01689818
168	0x3ea3c4b5	0.31986013
169	0x3d2a0816	0.041511618
170	0xbd807e06	-0.06274037
171	0x3eb4cb00	0.35311127
172	0xbe875c0c	-0.26437414
173	0x3dcbae9d	0.09945414
174	0xbd106bdf	-0.035259124
175	0x3eb368b2	0.35040814
176	0x3e9befd1	0.30456403
177	0x3d82f0d6	0.06393592
178	0x3a7fd1ec	0.0009758759
179	0x3f0f474e	0.5596818
180	0xbea1c3c2	-0.31594664
181	0x3e53e6b2	0.20693472
182	0x3d10a89d	0.035317052
183	0x3efd2152	0.49439484
184	0x3ec1214c	0.37720716
185	0x3e610283	0.21973614
186	0x3c801aa1	0.015637698
187	0x3efcd515	0.4938132
188	0xbeb7af46	-0.3587591
189	0x3de0fdcc	0.10985908
190	0xbd8c15f6	-0.06840126
191	0x3ef65d90	0.48118258
192	0x3df6cb41	0.12050486
193	0x3efa6e6d	0.48912373
194	0x3e027dd2	0.12743309
195	0x3ec456db	0.38347515
196	0xbd4d917b	-0.05018757
197	0x3c9c182c	0.019054495
198	0x3e46d40b	0.19416825
199	0x3eb6fff0	0.3574214
200	0x3e72c905	0.23709495
201	0x3f18233c	0.59428763
202	0xbd8d09a6	-0.06886606
203	0xbd361e17	-0.04446229
204	0xbc1526c7	-0.0091034835
205	0xbdb460ad	-0.08807502
206	0xbe0b5244	-0.136056
207	0xbb82b9ec	-0.003989449
208	0x3e2ab17c	0.16669267
209	0x3f298bd6	0.66229
210	0xbd27e2de	-0.04098784
211	0xbe34758e	-0.17622969
212	0xbd3fbe14	-0.046812132
213	0xbe44edcf	-0.19231342
214	0x3abb1bc4	0.0014275243
215	0xbe783e36	-0.24242482
216	0x3e25346c	0.16133279
217	0x3e13a95a	0.14420071
218	0x3b3e6c2a	0.002905617
219	0xbef1551c	-0.47135246
220	0xbca75ad6	-0.020429056
221	0x3d65904a	0.056045808
222	0x3d7f9f4e	0.062407784
223	0xbeb3bd81	-0.35105518
224	0x3e56a450	0.20961118
225	0x3e0c3249	0.13691057
226	0x3dfad8bf	0.12248372
227	0x3dad5d34	0.08465043
228	0x3b1fe800	0.0024399757
229	0xbe2630da	-0.16229573
230	0x3e34d216	0.17658266
231	0x3cb9485a	0.022617508
232	0x3e4a2d20	0.19743776
233	0x3e3e280c	0.18569964
234	0x3e0594a0	0.13044977
235	0x3ec483a6	0.3838169
236	0x3dd6b5f0	0.104839206
237	0xbe5f0d1e	-0.21782348
238	0x3e4554c3	0.19270615
239	0x3ea90b37	0.3301637
240	0x3dc5c239	0.09656186
241	0xbe857774	-0.26067698
242	0x3dc790f1	0.09744442
243	0xbe72af47	-0.23699676
244	0xbe13639c	-0.14393467
245	0xbde58838	-0.11207622
246	0x3deaba88	0.11461359
247	0xbe743017	-0.2384647
248	0x3de409dd	0.11134694
249	0xbe9cbc3f	-0.3061237
250	0xbdcfef05	-0.10153011
251	0xbeb3852b	-0.35062537
252	0xbe64fd50	-0.22362256
253	0xbe6ddb43	-0.23228173
254	0xbdf9c0d8	-0.12194985
255	0xbeb59d86	-0.35471743

fc1.bias f4 [256]
0	0xbd09afd1	-0.033614937
1	0x3be83109	0.0070859236
2	0x3ae82356	0.0017710726
3	0xbe84ceab	-0.25938925
4	0xbe5e4d0b	-0.21709077
5	0xbc613a54	-0.013746817
6	0xbe659b6a	-0.22422567
7	0x3e088576	0.13332161
8	0xbcc0dacc	-0.02354183
9	0xbda74afe	-0.081686005
10	0xbe2dd2fa	-0.16975012
11	0x3e930651	0.28715757
12	0xbdac77a0	-0.08421254
13	0xbdf1ada6	-0.11800699
14	0xbea4d95c	-0.32197082
15	0xbd6215c2	-0.05519653
16	0xbe9f3952	-0.3109842
17	0xbd9ad9cc	-0.07561073
18	0xbe1d2e4f	-0.15349697
19	0x3e51d8a3	0.20492797
20	0x3e37811a	0.17920342
21	0xbe00df21	-0.12585117
22	0x3d2c6633	0.042089652
23	0xbe6e0174	-0.23242742
24	0xbd81d0b2	-0.063386336
25	0xbe18a7af	-0.14907716
26	0xbd81d800	-0.06340027
27	0xbe08d481	-0.13362314
28	0x3da94002	0.08264162
29	0xbdf7455a	-0.12073775
30	0xbe813ab5	-0.25240102
31	0x3e3369a9	0.17520775
32	0xbdb83f23	-0.089964174
33	0x38d1cd8c	0.00010004183
34	0xbdad7ae6	-0.08470707
35	0xbea2c942	-0.31794173
36	0xbdc0f691	-0.09422029
37	0xbd8a4d23	-0.06752994
38	0xbeafc2f3	-0.34328422
39	0xbe0a025b	-0.13477461
40	0xbdd6ef32	-0.10494842
41	0xbe8ec12b	-0.2788175
42	0xbcde0313	-0.027101075
43	0xbe23cf5e	-0.15997073
44	0xbe692820	-0.22769213
45	0xbe65ef23	-0.22454505
46	0xbe2f0319	-0.17091025
47	0xbd889d9f	-0.06670689
48	0xbbe2d266	-0.006922054
49	0xbd66168c	-0.056173846
50	0xbdc0b371	-0.09409226
51	0xbe10f09e	-0.14154288
52	0xbe848ab4	-0.25887072
53	0xbe4c6c4b	-0.19963185
54	0xbe1fd5b6	-0.15608868
55	0xbec236b5	-0.37932363
56	0xbdc9e32d	-0.098577835
57	0xbcd58d5a	-0.026068378
58	0x3d8c7db5	0.06859914
59	0xbd2c6af0	-0.04209417
60	0x3dee9ab5	0.11650602
61	0xbd2f89d3	-0.04285605
62	0x3de7104d	0.11282406
63	0xbdd7d7ab	-0.10539182
64	0x3e95e1b9	0.29273775
65	0xbe06a681	-0.13149454
66	0xbe21d89d	-0.15805288
67	0xbd910cb7	-0.07082503
68	0xbd132f7e	-0.035933964
69	0xbd990ebc	-0.074735135
70	0xbcc0b80c	-0.02352526
71	0xbe5d8f37	-0.21636663
72	0xbda6ce8f	-0.08144867
73	0xbe32ce36	-0.17461476
74	0xbe41b5fa	-0.18917075
75	0x3d80bd10	0.06286061
76	0xbe19884c	-0.149934
77	0x3c367d54	0.011138279
78	0xbe6f4e94	-0.23369819
79	0xbe590359	-0.21192683
80	0xbe060714	-0.13088638
81	0x3d740b17	0.05958089
82	0xbdafa812	-0.08576979
83	0xbebe98ff	-0.37226102
84	0xbc75cf6d	-0.015003067
85	0xbe84813b	-0.25879845
86	0xbe746f44	-0.2387057
87	0xbd049a03	-0.03237344
88	0x3e583acc	0.21116179
89	0x3c2adfa6	0.0104292985
90	0xbe1e0e5a	-0.15435162
91	0xbe50a0d2	-0.20373848
92	0x3b6e371c	0.0036348766
93	0xbe3b9e60	-0.18322134
94	0xbdbeabb2	-0.09310092
95	0xbcda8cf9	-0.02667855
96	0xbe2bef8a	-0.16790596
97	0x3e4d8b11	0.20072581
98	0xbe38e930	-0.18057704
99	0xbc52d89d	-0.012869027
100	0xbe04e0c4	-0.12976366
101	0xbdc100cc	-0.0942398
102	0x3d2ee2b0	0.042696655
103	0xbe55f3de	-0.20893809
104	0xbcbb928f	-0.022897033
105	0x3d5f9f95	0.05459555
106	0xbe26b1a6	-0.16278705
107	0xbe23f2c4	-0.16010576
108	0x3e62bc81	0.22142221
109	0xbe1d735c	-0.15376037
110	0xbe3715c6	-0.178794
111	0xbcac8a34	-0.021061994
112	0xbc99973e	-0.018748876
113	0xbe104a99	-0.14090957
114	0xbe462c4e	-0.19352838
115	0x3d3dcbc3	0.0463369
116	0xbde9077f	-0.11378383
117	0x3e82a829	0.2551892
118	0xbee06ad2	-0.43831497
119	0xbd47de42	-0.048795946
120	0xbec766fb	-0.38945755
121	0xbe1c99ad	-0.15292998
122	0xbe881e27	-0.26585504
123	0xbe65d517	-0.22444569
124	0xbe8db482	-0.2767678
125	0xbda7977c	-0.0818319
126	0xbd970aa7	-0.07375079
127	0x3c462000	0.01209259
128	0xbd9df9e6	-0.0771368
129	0x3d3863a8	0.045016915
130	0xbdfaa7c7	-0.12239032
131	0xbea75c4d	-0.32687607
132	0xbe4d8afa	-0.20072547
133	0xbe52d4c8	-0.20588982
134	0xbe456038	-0.19274986
135	0xbdaf9cdf	-0.08574843
136	0xbe73b00a	-0.23797622
137	0xbe764a52	-0.24051788
138	0xbd5c418c	-0.053773448
139	0xbe4bf7b3	-0.19918709
140	0xbe1c3641	-0.15255071
141	0xbe77263e	-0.24135682
142	0xbe5ea41b	-0.21742289
143	0xbd2c0395	-0.041995604
144	0xbd360fca	-0.04444865
145	0xbe01374e	-0.12618753
146	0xbe1ccefb	-0.15313332
147	0x3d0ba8bd	0.03409647
148	0xbd8ba3be	-0.06818341
149	0xbd625baa	-0.0552632
150	0x3d203e3a	0.039121844
151	0x3e005992	0.12534168
152	0x3c214fe9	0.009845712
153	0xbd838cb5	-0.06423322
154	0xbdc930b2	-0.09823741
155	0xbe4eb666	-0.20186767
156	0xbe7ad075	-0.24493583
157	0x3d3550ac	0.044266388
158	0xbd60d51a	-0.05489073
159	0xbd8f19be	-0.06987332
160	0xbe7a4426	-0.24440059
161	0xbd9545e0	-0.07288718
162	0xbe1f1022	-0.15533498
163	0xbe64d292	-0.22345951
164	0xbd425c1c	-0.047451124
165	0xbe2e4eb8	-0.17022216
166	0xbe1fc634	-0.15602952
167	0xbd74ccab	-0.0597655
168	0xbe52bc88	-0.20579731
169	0xbd6b8d7f	-0.057507988
170	0xbddce331	-0.10785521
171	0xbe373b60	-0.17893744
172	0xbddfd298	-0.109288394
173	0xbd90cc61	-0.07070232
174	0xbd886e4b	-0.06661662
175	0x3dd0ae34	0.101894766
176	0x3e019920	0.12656069
177	0xba9bb640	-0.0011879876
178	0xbdf936c0	-0.12168646
179	0xbe518b17	-0.20463215
180	0xbe37c618	-0.1794666
181	0xbd929ead	-0.07159171
182	0xbd0a3bee	-0.03374856
183	0xbe635b59	-0.22202815
184	0xbe7d193f	-0.24716662
185	0xbe70e16c	-0.23523492
186	0xbcc8a69b	-0.024493506
187	0xbcc14b9d	-0.023595626
188	0xbca72337	-0.020402534
189	0xbcdc209e	-0.026871022
190	0x3c1bc83e	0.009508191
191	0x3db97295	0.09055058
192	0xbe0f4e87	-0.139948
193	0xbd673fb3	-0.056457233
194	0xbe53e78e	-0.206938
195	0xb9a96a6c	-0.00032313482
196	0xbde53943	-0.111925624
197	0xbeb98b56	-0.36239117
198	0x3cca0ca5	0.024664233
199	0xbe77e8f1	-0.24209954
200	0x3ddb8147	0.10718017
201	0xbe4f9744	-0.20272547
202	0xbe0cea2e	-0.13761207
203	0xbdf4ce5b	-0.11953422
204	0xbde4c306	-0.1117001
205	0x3e0ce304	0.13758475
206	0x3c9949a5	0.018711874
207	0xbec6b81a	-0.38812333
208	0x3d5cd1f7	0.053911176
209	0xbd4a8ce8	-0.049450785
210	0x3b711a1e	0.0036789249
211	0xbe3906b1	-0.18068959
212	0xbb2c3ac5	-0.0026280147
213	0x3ba3ac48	0.0049949028
214	0xbdee9515	-0.11649529
215	0x3e65b4d9	0.22432269
216	0xbe73ca8b	-0.23807733
217	0x3de245de	0.11048482
218	0xbe6edc3b	-0.23326199
219	0xbcaa1948	-0.020764008
220	0x3da58ba7	0.08083277
221	0xbdbe9de3	-0.09307458
222	0xbea5ce04	-0.3238374
223	0xbdfed67f	-0.12443256
224	0xbdb177d0	-0.086654305
225	0xbdd094ee	-0.10184656
226	0xbe4c453c	-0.19948286
227	0xbe39b876	-0.18136773
228	0xbb41596f	-0.002950277
229	0xbe43b636	-0.19112477
230	0xbdef6fc4	-0.116912395
231	0x3d0042a5	0.031313557
232	0xbd40ba5f	-0.047052737
233	0xbc835383	-0.016031032
234	0x3ddee40a	0.10883339
235	0xbe44a0f9	-0.19202031
236	0xbd6412fd	-0.05568217
237	0x3c59bcca	0.01328964
238	0xbb7c1cdf	-0.0038469357
239	0xbe0bb094	-0.13641578
240	0xbd32e48b	-0.043674987
241	0xbe8aa997	-0.27082512
242	0xbdbc431d	-0.09192488
243	0xbdf97678	-0.12180799
244	0xbde659fa	-0.112476304
245	0xbe5cf5ed	-0.21578188
246	0xbe0cf216	-0.13764223
247	0xbeab2dae	-0.33433288
248	0x3cb290ea	0.021797616
249	0x3cb9c1f0	0.022675484
250	0xbdb159ad	-0.086596824
251	0xbe0654a2	-0.13118222
252	0xbe421c4f	-0.18956111
253	0xbde95917	-0.11393946
254	0xbe089b52	-0.133405
255	0xbddef066	-0.10885696

fc2.weight f4 [128, 256]
0	0xbde80335	-0.11328737
1	0xbe0bc69f	-0.13649987
2	0x3e00ee66	0.12590942
3	0xbe04fcff	-0.12987135
4	0xbdd0689d	-0.101762034
5	0xbdaddfac	-0.08489928
6	0x3e3f7b47	0.1869937
7	0x3f146f2f	0.5798215
8	0xbe969001	-0.2940674
9	0xbeca9e8a	-0.3957408
10	0x3d6c3724	0.057669774
11	0xbe75977e	-0.23983571
12	0xbee7ea1b	-0.45295796
13	0x3e44cfb6	0.1921986
14	0xbeb68007	-0.35644552
15	0xbcb1c1df	-0.02169889
16	0xbdf25b75	-0.1183385
17	0x3ddcc086	0.107789084
18	0x3b3b4337	0.0028573999
19	0x3e6fdf3c	0.23425001
20	0xbc8719d9	-0.016491817
21	0x3eaec497	0.3413436
22	0xbdaa600f	-0.08319103
23	0x3ddd5900	0.10807991
24	0x3e46103a	0.19342127
25	0xbe378965	-0.17923506
26	0xbe96c00b	-0.29443392
27	0x3daa6aba	0.08321138
28	0xbebee1b3	-0.3728157
29	0x3d909870	0.07060325
30	0xbe4723ee	-0.194473
31	0x3dc95f59	0.09832639
32	0xbd121cc9	-0.035671983
33	0x3d20e0be	0.03927683
34	0xbc9a0da8	-0.01880534
35	0x3e9ace4a	0.3023551
36	0xbe365c55	-0.1780866
37	0xbe6c4f3f	-0.23077105
38	0x3bf783ca	0.0075535523
39	0xbd8b2698	-0.067944705
40	0xbdefc5e5	-0.11707667
41	0xbe4a1391	-0.19734026
42	0xbdf24474	-0.11829463
43	0xbd3cdf09	-0.04611114
44	0xbe8a2d13	-0.26987514
45	0xbe95b2f4	-0.29238093
46	0xbf05e6fd	-0.52305585
47	0x3debfc4c	0.11522731
48	0xbde9dff8	-0.11419672
49	0xbe485a59	-0.19565715
50	0x3ee306d1	0.44341138
51	0xbeb1b142	-0.3470555
52	0x3eafe891	0.34357122
53	0x3e0fee12	0.1405566
54	0x3c93838f	0.018007068
55	0xbeb98943	-0.36237535
56	0xbd74efd4	-0.05979903
57	0x3e20d6b4	0.15706903
58	0xbc763bfb	-0.015028949
59	0xbdd2f1a8	-0.102999985
60	0xbdfb90d2	-0.12283482
61	0x3d1ce0bd	0.038300265
62	0x3d6073e5	0.054798026
63	0xbd52c2b7	-0.051455226
64	0x3e003651	0.1252072
65	0xbc2d07a4	-0.010560904
66	0x3d38c1bf	0.045106646
67	0xbe233d03	-0.15941243
68	0xbe182970	-0.14859557
69	0xbe2b4f9b	-0.16729586
70	0xbd968dc6	-0.0735126
71	0xbe2e8e9b	-0.17046587
72	0xbe0876c0	-0.1332655
73	0xbe1950f3	-0.14972286
74	0xbe43be01	-0.1911545
75	0x3daf1884	0.08549598
76	0xbd8b1b0a	-0.06792267
77	0x3e0ca765	0.13735731
78	0xbea2fb62	-0.31832415
79	0x3cac5861	0.021038236
80	0xbde13854	-0.10997072
81	0x3d63f284	0.055651203
82	0xbdb3ae75	-0.087735094
83	0xbe908502	-0.28226477
84	0xbce47dde	-0.02789205
85	0xbe3643ad	-0.17799254
86	0x3eb2dd77	0.3493459
87	0x3e7318c1	0.23739912
88	0xbc878cbb	-0.016546598
89	0xbe042fda	-0.12908879
90	0xbe20cf0a	-0.15703979
91	0xbd25b235	-0.040453155
92	0x3c072ccd	0.008250427
93	0xbe424e2b	-0.18975131
94	0x3e3baa3a	0.18326655
95	0x3e3e8091	0.18603732
96	0xbe837677	-0.2567632
97	0x3ce25758	0.02762954
98	0xbdb4956a	-0.08817561
99	0xbd8a9a52	-0.067677155
100	0xbdc03cbc	-0.09386584
101	0xbda737ab	-0.08164915
102	0x3ef54a4e	0.47908252
103	0xbe189016	-0.14898714
104	0x3ee823d9	0.4533985
105	0xbd0d3a0f	-0.034479197
106	0xbf0c6518	-0.54841757
107	0x3e1a34ae	0.15059158
108	0xbd44166c	-0.047872946
109	0xbd62a05d	-0.055328716
110	0x3d7b487f	0.061348435
111	0x3cabfa93	0.020993507
112	0xbe46cfcd	-0.19415207
113	0xbecd0305	-0.40041366
114	0x3e3b2e2e	0.18279335
115	0x3e777b5b	0.2416815
116	0xbd870a31	-0.06593741
117	0xbd3cef20	-0.046126485
118	0xbdb42ef4	-0.08798018
119	0x3e853c14	0.26022398
120	0x3eda249b	0.42606053
121	0x3e1d8591	0.15382983
122	0xbe605092	-0.21905735
123	0x3e442a3c	0.19156736
124	0x3d468fb2	0.048476882
125	0xbe3a5ab1	-0.18198659
126	0x3d510c91	0.051037375
127	0xbe68dfb8	-0.22741592
128	0xbdf5299f	-0.11970829
129	0xbc72d585	-0.014821415
130	0x3e068844	0.13137919
131	0xbe69226c	-0.22767037
132	0xbd53bd32	-0.051694103
133	0xbef061d1	-0.46949628
134	0x3e97b279	0.2962835
135	0xbe1ab11a	-0.15106621
136	0x3d3b41af	0.045716938
137	0xbe09fdf6	-0.13475785
138	0x3ec10ccf	0.37705085
139	0x3ef5aa92	0.47981697
140	0x3deab5be	0.11460446
141	0x3e168a8b	0.14701287
142	0x3d48b32a	0.04899899
143	0xbea09cd4	-0.3136965
144	0x3ee6f219	0.4510658
145	0xbe7735d2	-0.24141625
146	0x3e3f75fc	0.18697351
147	0x3e23de16	0.16002688
148	0x3e5a360a	0.21309677
149	0xbdae6bd2	-0.08516659
150	0x3d209590	0.039205134
151	0xbc78ab56	-0.015177568
152	0xbda3c372	-0.079962626
153	0xbda575ce	-0.0807911
154	0x3e461df2	0.1934736
155	0x3ec5d1ac	0.3863653
156	0xbeb1984d	-0.3468651
157	0x3dc35da7	0.09539347
158	0x3d2c22cf	0.042025384
159	0x3e57a33b	0.21058361
160	0xbdc8e2fc	-0.09808919
161	0xbe6a0676	-0.22854027
162	0xbdd36723	-0.10322406
163	0xbe18628c	-0.14881343
164	0x3ccb5e61	0.024825277
165	0xbded8055	-0.11596743
166	0xbe84eeee	-0.2596354
167	0x3e8e96a2	0.278493
168	0xbe9a42db	-0.30129132
169	0x3e24c73a	0.16091624
170	0xbe962da7	-0.29331705
171	0x3dd8790f	0.10569965
172	0xbdc51d5a	-0.09624739
173	0x3d6c98a6	0.057762764
174	0xbe4c8722	-0.19973424
175	0xbe9dd389	-0.3082545
176	0xbd8fc1cf	-0.07019388
177	0xbde0f39d	-0.109839655
178	0x3e609915	0.21933396
179	0xbdf7582d	-0.12077365
180	0x3e04e4fb	0.12977974
181	0x3d3131c8	0.043260366
182	0x3c39f1e4	0.011349175
183	0x3ca982a5	0.020692179
184	0xbdd0c1ab	-0.10193189
185	0x3e602bae	0.21891662
186	0xbe5f384e	-0.21798822
187	0x3deb3e89	0.11486537
188	0xbd899c41	-0.06719256
189	0xbcd2d7bd	-0.025737638
190	0xbd90056a	-0.07032283
191	0xbe022f93	-0.1271346
192	0xbe9ad87b	-0.30243286
193	0xbca1ec81	-0.019766094
194	0xbdd32450	-0.103096604
195	0x3cd2febd	0.025756234
196	0xbcfb5a40	-0.030682683
197	0x3dcc7687	0.09983545
198	0x3e32bba1	0.17454387
199	0xbe70b85d	-0.23507829
200	0x3b8684b5	0.0041051754
201	0x3e8d04f1	0.27542832
202	0x3d8d9ca0	0.069146395
203	0xbc979b25	-0.018506596
204	0xbd8c1e8e	-0.06841765
205	0x3e7bdaa7	0.24595128
206	0xbe39a02c	-0.18127507
207	0x3cecaa9a	0.028889943
208	0x3da6d46c	0.08145985
209	0xbe049ef4	-0.12951261
210	0xbd894493	-0.067025326
211	0x3bba3444	0.0056825
212	0x3d2ffdcf	0.04296666
213	0xbe2d838b	-0.16944711
214	0xbdce05c7	-0.10059696
215	0xbd094bad	-0.033519436
216	0x3e0fe409	0.14051832
217	0xbd944f4c	-0.07241687
218	0x3e79ddbf	0.24400996
219	0x3dd30da1	0.10305334
220	0x3eb98d47	0.362406
221	0xbd420e1e	-0.047376744
222	0x3db7292c	0.089434
223	0x3e1dc6af	0.15407823
224	0x3ea3d8d0	0.32001352
225	0xbc90938a	-0.017648477
226	0xbe02f344	-0.12788111
227	0xbdbd3cef	-0.09240138
228	0x3f1760fd	0.5913237
229	0x3d213ea1	0.03936637
230	0x39969495	0.00028720932
231	0x3d81e151	0.06341804
232	0x3e513a40	0.20432377
233	0x3dc309ef	0.09523379
234	0xbe03e523	-0.12880377
235	0xbe2da8b4	-0.16958886
236	0xbdf42d77	-0.11922734
237	0xbdefd7f5	-0.117111124
238	0xbe647947	-0.22311889
239	0x3ebd73c6	0.3700239
240	0xbe0de237	-0.13855825
241	0xbd598c00	-0.05311203
242	0x3e21a1aa	0.15784326
243	0x3d867e4b	0.06567057
244	0xbd3d56d1	-0.046225373
245	0x3e5c07d8	0.21487367
246	0x3dfa9032	0.12234534
247	0x3ecc8662	0.39946276
248	0x3e85e713	0.26152858
249	0x3e2c2b3d	0.16813369
250	0xbe8b0730	-0.2715392
251	0x3d7b8d6f	0.06141418
252	0x3e25feae	0.16210434
253	0x3e361406	0.17781076
254	0x3e3d291a	0.1847271
255	0xbe430c25	-0.19047602

fc2.bias f4 [128]
0	0xbcc9586f	-0.024578301
1	0xbd84afb6	-0.06478827
2	0xbe01d1ba	-0.1267766
3	0xbe2d9dce	-0.16954729
4	0xbe19fbf0	-0.15037513
5	0xbdd14db6	-0.102199
6	0xbe87f896	-0.26556844
7	0x3c31efd9	0.010860407
8	0xbcde4af6	-0.027135354
9	0xbdbab41d	-0.09116385
10	0xbdb6172b	-0.08891138
11	0x3d9e7ee2	0.07739045
12	0xbda6a0b8	-0.081361234
13	0x3d3b9966	0.04580059
14	0xbda82242	-0.08209659
15	0xbe155ba8	-0.14585745
16	0x3cba83cd	0.022767926
17	0xbe5b8a31	-0.21439435
18	0x3d9aea83	0.07564261
19	0xbda9efab	-0.08297666
20	0xbe1e3ca9	-0.15452828
21	0x3a1b0f23	0.00059150363
22	0xbe1347c7	-0.1438285
23	0x3e1d8baa	0.15385309
24	0xbe6fc96a	-0.23416677
25	0x3dd34e1c	0.103176326
26	0xbe23f825	-0.16012628
27	0xbd46f50c	-0.04857354
28	0xbd8c09e3	-0.06837823
29	0x3d725d71	0.059171144
30	0xbe328c7f	-0.17436408
31	0xbebc16b6	-0.36736077
32	0xbd3816b5	-0.04494353
33	0x3cc07c44	0.023496754
34	0xbdee6fd3	-0.116424225
35	0xbd74d470	-0.05977291
36	0xbd8c5805	-0.06852726
37	0xbe0c8e1c	-0.13726085
38	0xbe8c8c27	-0.27450678
39	0x3c845ba8	0.016156986
40	0x3cd354b3	0.025797224
41	0x3a96b85b	0.0011499034
42	0xbdda337f	-0.10654353
43	0xbe143b08	-0.14475644
44	0x3d6c61ea	0.057710566
45	0xbde72e62	-0.11288144
46	0xbe8b3769	-0.27190712
47	0xbe43c2f4	-0.19117337
48	0xbe395441	-0.18098547
49	0x3df170b8	0.117890775
50	0x3ddad2bf	0.10684728
51	0x3c93d50c	0.018045925
52	0x3d272f05	0.040816326
53	0xbd670693	-0.056402754
54	0xbeb306a9	-0.3496602
55	0xbe6f6b4d	-0.23380776
56	0xbe4a4429	-0.19752564
57	0xbe23efbf	-0.16009425
58	0x3dd9f3ad	0.106421806
59	0xbcceea78	-0.025258288
60	0x3df3f588	0.11912066
61	0x3e088be1	0.1333461
62	0x3c9a4293	0.018830573
63	0x3dfe9072	0.124298945
64	0xbe59fecf	-0.21288608
65	0x3d306aef	0.04307073
66	0xbe8694aa	-0.26285297
67	0xbe5270b9	-0.20550813
68	0xbe08c321	-0.13355686
69	0xbe1d824a	-0.15381733
70	0x3ddf1f57	0.108946495
71	0xbdec431d	-0.11536238
72	0x3d27ea58	0.040994972
73	0xbe250fe9	-0.1611935
74	0xbe86a284	-0.26295865
75	0xbdb86191	-0.09002984
76	0xbe51650e	-0.20448706
77	0x3d6f9632	0.058492847
78	0xbedeab1b	-0.43489918
79	0xbea75f51	-0.32689908
80	0xbe5386ef	-0.20656942
81	0xbe2d2ac9	-0.16910852
82	0xbe85fc4b	-0.26169047
83	0xbd71f8ad	-0.059075046
84	0xbdaa49db	-0.08314868
85	0xbe0f55cb	-0.13997571
86	0xbd37e330	-0.044894397
87	0xbe4551a7	-0.19269429
88	0x3db9f3e7	0.09079724
89	0x3d141ce4	0.036160365
90	0xbd92ec34	-0.071739584
91	0x3ceef202	0.029168133
92	0xbe89a29b	-0.2688187
93	0xbe03b9cc	-0.12863845
94	0xbee1d8d5	-0.44110742
95	0xbe04c866	-0.12967071
96	0x3d005c48	0.031338006
97	0xbdd47851	-0.10374511
98	0xbc6745c9	-0.014115759
99	0x3d97715a	0.07394667
100	0xbdfe9838	-0.12431377
101	0xbe25f05a	-0.16204968
102	0xbe0ad8c6	-0.13559255
103	0xbdd5339f	-0.104102366
104	0x3d9290b0	0.07156503
105	0xbe6d5bf8	-0.23179615
106	0xbe344515	-0.17604478
107	0xbe680ccf	-0.22661136
108	0xbd6079b7	-0.054803576
109	0xbec3f882	-0.38275534
110	0xbdfd9920	-0.12382722
111	0xbe814e1a	-0.252549
112	0xbedea5ba	-0.43485814
113	0xbbba6977	-0.005688842
114	0x3d125514	0.035725668
115	0xbe398747	-0.1811801
116	0x3d3e53b7	0.046466555
117	0xbe039de5	-0.128532
118	0x3e4b1b7d	0.19834705
119	0xbdaf520f	-0.08560573
120	0xbeede328	-0.4646237
121	0xbd402660	-0.046911597
122	0xbdd51765	-0.10404853
123	0xbdf60697	-0.12012976
124	0xbca57241	-0.020196082
125	0xbee5fc69	-0.44919136
126	0xbdd41a9f	-0.1035664
127	0xbdd95e40	-0.1061368

fc3.weight f4 [2, 128]
0	0xbe52f95d	-0.20602937
1	0x3e2e5337	0.17023931
2	0xbe0ae5b7	-0.13564192
3	0xbd313303	-0.04326154
4	0x3dda6ffe	0.10665892
5	0xbddb908f	-0.10720932
6	0xbe0660a2	-0.131228
7	0x3f0c8eef	0.549056
8	0x3df53265	0.119725026
9	0x3dd5a873	0.1043252
10	0x3ecc58c3	0.3991147
11	0x3e66121f	0.2246785
12	0xbcb98e86	-0.022650968
13	0x3dafd149	0.0858484
14	0x3d38f35b	0.045153957
15	0x3c7d0975	0.015444149
16	0x3e8ee0e2	0.27905947
17	0xbddf5129	-0.10904152
18	0x3d422561	0.04739893
19	0xb7d2fa1d	-2.5150419e-05
20	0x3de32ff8	0.11093134
21	0xbdd48a53	-0.10377946
22	0xbcdde357	-0.027085943
23	0x3d03c0a0	0.032166123
24	0xbd5a5133	-0.053300094
25	0x3980ef81	0.00024592507
26	0xbd803ba6	-0.06261377
27	0x3cbd58b7	0.023113592
28	0xbe3809d0	-0.17972493
29	0x3dec7f06	0.11547665
30	0xbd9b9abc	-0.075978726
31	0xbe4b0537	-0.19826208
32	0x3d33651f	0.04379761
33	0x3c06cac2	0.008227052
34	0x3e70c6f1	0.2351339
35	0xbd3f6862	-0.046730407
36	0x3df4456f	0.11927306
37	0x3d0e9966	0.03481426
38	0xbbd56cb4	-0.0065132026
39	0x3e24669b	0.16054766
40	0xbd5b65a9	-0.053563748
41	0x3c0a3c23	0.008437189
42	0x3e028cb3	0.12748985
43	0x3c703e94	0.014663357
44	0x3e3e0920	0.18558168
45	0xbbfdfbdd	-0.0077509717
46	0xbdbed342	-0.09317638
47	0xbe3cde64	-0.1844421
48	0x3e8b7568	0.2723801
49	0x3cd99e36	0.026564699
50	0x3e3b0735	0.18264468
51	0x3a197a35	0.0005854697
52	0x3e8adb34	0.27120364
53	0xbe9337bd	-0.28753462
54	0xbc84b83d	-0.016201133
55	0x3de93b12	0.1138822
56	0x3a42142f	0.000740352
57	0xbbf15d00	-0.007365823
58	0x3e361fed	0.17785616
59	0xbe1c4443	-0.15260415
60	0xbd459746	-0.04823997
61	0x3e9031fa	0.2816313
62	0x3e0dfbfe	0.13865659
63	0x3cfd2127	0.030899597
64	0xbde57e24	-0.112057
65	0x3e41e82f	0.18936227
66	0xbe391574	-0.1807459
67	0x3e00bc03	0.12571721
68	0xbe00f29b	-0.12592547
69	0xbe9cd6c3	-0.306326
70	0x3e06bcbc	0.13157934
71	0xbda05233	-0.07828178
72	0xbebd0257	-0.36915848
73	0x3e14f117	0.14545093
74	0xbe93d53f	-0.2887363
75	0x3cbccc35	0.023046592
76	0xbd07d33f	-0.033160444
77	0x3d591a11	0.053003374
78	0xbd201542	-0.039082773
79	0xbe34b1c2	-0.17645934
80	0xbd4e9266	-0.050432585
81	0xbd070470	-0.032963216
82	0x3e288c44	0.16459757
83	0xbf3bcede	-0.7336253
84	0x3db28124	0.08716038
85	0x3db5b2d7	0.088720016
86	0xbe35261e	-0.17690322
87	0x3d9500f9	0.07275576
88	0x3e4d80da	0.20068684
89	0x3d9bd221	0.07608438
90	0x3e287a40	0.16452885
91	0x3dec6efe	0.115446076
92	0xbe1d3648	-0.15352738
93	0xbeaeaea4	-0.34117615
94	0xbe30e3c2	-0.17274383
95	0x3d6ba1f7	0.05752751
96	0x3ddc0f34	0.10745087
97	0x3d8e384d	0.06944332
98	0x3baee2ad	0.0053370805
99	0x3e1e4c3d	0.1545877
100	0x3d6e806b	0.058227938
101	0xbe9b9f4b	-0.30394968
102	0xbe402bb5	-0.18766673
103	0x3de241f9	0.110477395
104	0xbe11204d	-0.14172478
105	0xbc882803	-0.016620642
106	0x3d0daad1	0.03458673
107	0x3cb53700	0.022120953
108	0x3dfe6e61	0.12423397
109	0xbe5d2897	-0.21597515
110	0x3d907975	0.07054416
111	0x3dcb075c	0.09913513
112	0xbe69be3f	-0.2282648
113	0x3d9bc453	0.07605805
114	0xbd11c476	-0.03558775
115	0xbe00aae3	-0.12565188
116	0xbd1fd9cb	-0.039026063
117	0x3dbb2ade	0.09139036
118	0x3e3156fc	0.17318338
119	0x3da6a939	0.081377454
120	0xbe77cd08	-0.24199307
121	0x3d155ee1	0.036467437
122	0xbe9aba75	-0.3022038
123	0xbd9f19f5	-0.07768623
124	0x3ccf6ac1	0.025319459
125	0x3c8d9924	0.017284937
126	0xbd2f8567	-0.04285183
127	0x3e0692a1	0.13141872
128	0xbdae2525	-0.085031785
129	0x3bf6be9a	0.0075300457
130	0xbe532e97	-0.20623241
131	0x3e1a88a0	0.15091181
132	0x3d03686d	0.03208201
133	0xbe36c891	-0.17849948
134	0xbd915710	-0.07096684
135	0x3e42a4f9	0.19008245
136	0xbc9f3816	-0.019435924
137	0xbe70db22	-0.23521093
138	0xbe98ad21	-0.29819587
139	0x3d38ebf5	0.0451469
140	0xbedff83f	-0.43744084
141	0x3e9907fd	0.29888907
142	0x3e24c072	0.16089037
143	0xbeb708ce	-0.35748905
144	0xbd5b9a91	-0.053614203
145	0x3e6bc889	0.23025717
146	0xbe8e5efb	-0.2780684
147	0xbda26c2a	-0.07930787
148	0xbdd2d30f	-0.102941625
149	0xbe426880	-0.18985176
150	0x3e3a1c79	0.18174924
151	0xbe90737a	-0.28213102
152	0x3e538004	0.20654303
153	0x3ee29885	0.44256988
154	0xbe984dd7	-0.29746887
155	0xbe87e054	-0.26538336
156	0xbd8e1d55	-0.069391884
157	0x3e0f66bd	0.14004035
158	0xbdf64659	-0.120251365
159	0x3d90148b	0.07035168
160	0xbee3d90e	-0.44501537
161	0x3c88c7a2	0.016696755
162	0x3d90d758	0.070723236
163	0xbe842e84	-0.2581674
164	0x3c978aa7	0.018498732
165	0x3e108f9a	0.1411728
166	0x3e9b48c8	0.30328965
167	0x3e5942db	0.2121691
168	0xbeb4acaa	-0.35287982
169	0xbd0061ec	-0.031343386
170	0xbd2daeba	-0.04240296
171	0x3c9a617d	0.018845314
172	0xbe111dfc	-0.14171594
173	0xbebb2b1a	-0.3655632
174	0xbe7e60a3	-0.24841551
175	0xbd015ffd	-0.031585682
176	0xbc9675f2	-0.018366788
177	0xbeee7083	-0.46570215
178	0x3e897153	0.26844272
179	0xbef4a63d	-0.4778308
180	0xbd33a207	-0.043855693
181	0xbe7e3898	-0.24826276
182	0x3e1367c3	0.1439505
183	0x3e877542	0.26456648
184	0xbe37940e	-0.17927572
185	0x3e8d8b93	0.2764555
186	0x3dda3eb4	0.10656491
187	0xbd140439	-0.03613684
188	0xbe9486c6	-0.29009074
189	0xbd3d509e	-0.04621946
190	0xbd6aa2ba	-0.057284094
191	0x3e76e9c2	0.24112609
192	0xbde12795	-0.10993878
193	0xbecd470e	-0.40093273
194	0xbe9d5d78	-0.30735373
195	0x3e3e677b	0.18594162
196	0x3c366023	0.011131319
197	0x3d80eccc	0.062951654
198	0x3e1b79b2	0.15183142
199	0xbe7b10be	-0.24518105
200	0xbd97e047	-0.074158244
201	0xbe0aa227	-0.13538419
202	0xbdd69708	-0.10478026
203	0xbacffc3d	-0.001586802
204	0xbeaa216a	-0.33228618
205	0xbe4d9f7b	-0.20080368
206	0x3d99e728	0.07514793
207	0x3ba3f186	0.005003157
208	0xbe1420ad	-0.1446559
209	0xbd899b27	-0.06719046
210	0xbe5b4f02	-0.21416858
211	0xbe2b5a64	-0.167337
212	0xbd8b6c60	-0.0680778
213	0xbe212c50	-0.1573956
214	0xbe6d7302	-0.23188403
215	0x3e1ea05c	0.1549086
216	0x3ea6f788	0.32610726
217	0x3e1b8052	0.15185669
218	0xbd34c52c	-0.04413335
219	0x3e809de3	0.25120458
220	0xbdc1bcc4	-0.09459832
221	0x3c9633e1	0.018335285
222	0x3df687ec	0.12037644
223	0x3e0d1c31	0.13780285
224	0xbdc7b640	-0.09751558
225	0xbdb74513	-0.08948722
226	0xbd6dc176	-0.058045827
227	0x3db0707d	0.086152054
228	0xbe990c0a	-0.29891998
229	0x3af2eb95	0.0018533344
230	0x3e48034d	0.19532509
231	0xbe809f1f	-0.251214
232	0xbeb3d43f	-0.35122868
233	0xbdeb2f33	-0.11483612
234	0xbe9e1674	-0.30876505
235	0xbe14b09e	-0.14520499
236	0xbe2ee8aa	-0.17080942
237	0xbe056d46	-0.13029966
238	0x3dd7ffc7	0.105468325
239	0x3d5ab636	0.053396426
240	0x3cffb5ce	0.03121462
241	0xbe7f9964	-0.24960858
242	0xbce93e25	-0.028472016
243	0xbe8e7774	-0.2782551
244	0xbe4ce282	-0.20008281
245	0x3e29883f	0.1655588
246	0x3e099350	0.13435102
247	0xbe5333e6	-0.20625266
248	0xbd32cc16	-0.043651663
249	0xbd2ebd56	-0.042661034
250	0x3d6d76a1	0.05797446
251	0xbe661252	-0.22467926
252	0xbebe9e6b	-0.37230238
253	0x3e8d432f	0.2759032
254	0x3eae0732	0.33989865
255	0xbdbaf982	-0.09129621

fc3.bias f4 [2]
0	0x3e6aece7	0.22941934
1	0xbdaa30be	-0.08310078
