checkpoint_actor_0.pth (torch_old, 183780 bytes, 6 tensors)

fc1.weight f4 [256, 48]
0.17633043 0.016122695 -0.105688184 0.11471476 0.20586978 -0.24940576 -0.10063254 0.16805865
0.16154778 0.08841387 -0.16480488 -0.11914221 0.041375313 -0.18145427 -0.102981165 -0.028412258
0.24639896 0.06971436 -0.09014638 0.010147542 -0.07210324 -0.07570146 -0.051589753 0.08024996
0.5002743 0.2917129 -0.1808581 -0.11759093 -0.20818794 -0.30230442 -0.08606037 -0.112079374
0.4546719 0.32460734 -0.19928722 0.0013520278 -0.061315157 -0.1797218 -0.23213804 0.04839102
0.4627883 0.37707758 -0.062109947 -0.04809635 0.081269585 -0.07069838 -0.015458865 -0.015829997
0.328983 -0.30735764 -0.18017557 -0.67186964 0.17504956 -0.3625549 -0.14720741 -0.6479773
0.21576789 -0.5409336 -0.19157083 -0.38962564 0.2152639 -0.0900281 -0.102381326 -0.3507338
0.1485312 -0.5508707 0.0616816 0.18385613 0.22833386 -0.047612704 0.04728996 0.13902612
0.21261133 0.41949335 -0.23439749 0.08045569 -0.22249812 -0.3679237 -0.23827147 0.030956011
0.11930518 0.1884497 -0.046993237 -0.15005642 -0.22035535 -0.1981949 -0.07386826 -0.21561308
0.034296166 0.16520707 -0.19390889 -0.3755093 -0.33159453 -0.022850351 -0.2647106 -0.3357364
0.13839309 0.119610496 -0.09579282 -0.4039664 0.0082412325 0.45036352 -0.12359139 -0.31114933
0.24063902 0.19364072 -0.00023614468 -0.14395042 0.3472481 0.2192216 -0.030956518 -0.22601682
0.2435706 0.24503046 0.066059075 0.0022714266 0.8071305 0.080426835 0.050358955 0.01708801
0.4330354 -0.58900094 -0.07267967 -0.26577547 -0.043816365 0.44970372 -0.00452436 -0.2891997
0.34069785 -0.4045125 -0.03266904 0.08193177 -0.39280885 0.23606122 0.029102694 -0.016474785
0.344126 -0.36558035 -0.11289763 0.19579087 -0.82279456 0.04643255 -0.006308385 0.16404453
0.24252617 0.24266215 -0.13094443 -0.15319754 -0.22354531 0.03741265 -0.083195925 -0.21886115
0.21083987 0.14008279 0.05763802 -0.08274958 -0.23782767 0.0072013563 0.035202924 -0.060054503
0.28298548 0.021728594 -0.01415519 -0.3806014 -0.23743503 -0.02804319 -0.10825064 -0.3596211
0.25228423 0.010360746 -0.03742891 0.06636437 0.12515925 -0.00040646677 -0.009947257 0.06366104
0.31485274 0.022170622 0.01848535 0.16216978 0.26830313 -0.037327524 0.052826326 0.0968825
0.23204002 0.04755537 -0.1584478 0.37189794 0.29671896 0.08282361 -0.2424895 0.35926774
-0.07094192 -0.36578736 0.06471989 -0.22764285 0.040779863 -0.3470001 0.13145654 -0.25369537
-0.071088776 -0.52008617 0.20385526 -0.06503271 0.16224459 -0.07439684 0.1366658 -0.024560366
-0.0020834752 -0.30993408 -0.02803245 0.20786296 0.08657726 -0.07936964 0.014382454 0.14166863
0.15941183 -0.22703122 0.0022129724 -0.22354291 -0.111396596 -0.31000993 0.061715417 -0.10324468
-0.024721986 -0.44534612 -0.09763401 -0.28646109 -0.16890825 -0.14861691 -0.04353505 -0.34849373
0.01942498 -0.37560835 -0.16533121 -0.54207504 -0.028550845 -0.10487978 -0.10307412 -0.5957285
0.13258119 0.3022885 -0.09896134 -0.41256028 -0.15765321 -0.051695827 -0.081792586 -0.41402826
0.17101932 0.11983938 0.19429334 -0.41118777 -0.1551251 -0.03369606 0.17387359 -0.41528007
00000000: f78f 343e be13 843c 0c73 d8bd 92ef ea3d
00000010: 87cf 523e 3964 7fbe 6f18 cebd 9117 2c3e
00000020: c86c 253e 5512 b53d 9cc2 28be d500 f4bd
00000030: 2979 293d 26cf 39be cae7 d2bd d3c0 e8bc
00000040: 0250 7c3e 67c6 8e3d aa9e b8bd e041 263c
00000050: ddaa 93bd 5e09 9bbd c74f 53bd 175a a43d
00000060: fa11 003f 655b 953e de32 39be 83d3 f0bd
00000070: 382f 55be a5c7 9abe 6b40 b0bd df89 e5bd
00000080: c1ca e83e ef32 a63e f311 4cbe 8636 b13a
00000090: 9a25 7bbd fe08 38be 98b5 6dbe aa35 463d
000000a0: 97f2 ec3e 5010 c13e 0067 7ebd ae00 45bd
000000b0: ab70 a63d 50ca 90bd 2e47 7dbc e9ad 81bc
000000c0: 7670 a83e fb5d 9dbe f27f 38be a6ff 2bbf
000000d0: 3140 333e cca0 b9be 8abd 16be d7e1 25bf
000000e0: 42f2 5c3e a07a 0abf 252b 44be 037d c7be
000000f0: 246e 5c3e a760 b8bd 4dad d1bd 6193 b3be
00000100: 9018 183e dd05 0dbf d8a5 7c3d c844 3c3e
00000110: 5ad0 693e 8a05 43bd 1eb3 413d dd5c 0e3e
00000120: c9b6 593e d5c7 d63e e505 70be f4c5 a43d
00000130: 8cd6 63be 7f60 bcbe 70fd 73be 7697 fd3c
00000140: 4656 f43d f5f8 403e fb7b 40bd 64a8 19be
00000150: d5a4 61be 9bf3 4abe 3e48 97bd adc9 5cbe
00000160: 237a 0c3d 0b2c 293e 0d90 46be c142 c0be
00000170: c2c6 a9be a930 bbbc 2688 87be a4e5 abbe
00000180: ebb6 0d3e 59f6 f43d 072f c4bd afd4 cebe
00000190: 3c06 073c 0c96 e63e 7c1d fdbd f74e 9fbe
000001a0: 136a 763e c149 463e 9b9d 77b9 bd67 13be
000001b0: 81ca b13e a17b 603e 8698 fdbc f470 67be
000001c0: 926a 793e 44e9 7a3e fb49 873d 37dc 143b
000001d0: 1ba0 4e3f d3b6 a43d 3145 4e3d 28fc 8b3c
000001e0: d1b6 dd3e c4c8 16bf 14d9 94bd b913 88be
000001f0: ca78 33bd 913f e63e 1541 94bb fc11 94be
00000200: f36f ae3e 431c cfbe f9cf 05bd d8cb a73d
00000210: 3e1e c9be 08ba 713e c668 ee3c 21f6 86bc
00000220: 4831 b03e 592d bbbe df36 e7bd 677d 483e
00000230: aaa2 52bf 0f30 3e3d 92b6 cebb 4afb 273e
00000240: c858 783e 6d7c 783e 4c16 06be d1df 1cbe
00000250: 10e9 64be 023e 193d a062 aabd 231d 60be
00000260: 68e6 573e dd71 0f3e d815 6c3d 9d78 a9bd
00000270: 1989 73be 5bf9 eb3b f130 103d b6fb 75bd
00000280: 79e3 903e 2a00 b23c 2ceb 67bc 30de c2be
00000290: 2b22 73be d5ba e5bc 83b2 ddbd 4220 b8be
000002a0: 662b 813e 1ec0 293c 0f4f 19bd 0bea 873d
000002b0: bf29 003e 0c1b d5b9 d2f9 22bc b860 823d
000002c0: 6134 a13e 2a9f b53c 976e 973c d60f 263e
000002d0: 075f 893e bfe4 18bd 6b60 583d 556a c63d
000002e0: e69b 6d3e 6bc9 423d 2440 22be 6869 be3e
000002f0: 8ceb 973e 6d9f a93d 2b4f 78be f1f1 b73e
00000300: ff49 91bd 7b48 bbbe dd8b 843d 351b 69be
00000310: c908 273d ffa9 b1be 8b9c 063e 5ce4 81be
00000320: fe96 91bd 5e24 05bf 6fbf 503e df2f 85bd
00000330: 7223 263e 5f5d 98bd 1ff2 0b3e d232 c9bc
00000340: ea8a 08bb aeaf 9ebe 4fa4 e5bc 07da 543e
00000350: 6b4f b13d 8d8c a2bd 62a4 6b3c 9511 113e
00000360: db3c 233e df7a 68be 8407 113b 6fe8 64be
00000370: e623 e4bd 9fb9 9ebe 4ec9 7c3d f271 d3bd
00000380: c385 cabc 6804 e4be 57f4 c7bd 07ab 92be
00000390: 49f6 2cbe 082f 18be cf51 32bd c56d b2be
000003a0: 2321 9f3c bd4f c0be 964c 29be 6ec5 0abf
000003b0: 76e3 e9bc 36cb d6bd 8618 d3bd aa81 18bf
000003c0: 5dc3 073e 8fc5 9a3e 3eac cabd 1a3b d3be
000003d0: d86f 21be 01bf 53bd df82 a7bd 83fb d3be
000003e0: b01f 2f3e 596e f53d d5f4 463e 3487 d2be
000003f0: 1dd9 1ebe e104 0abd eb0b 323e 979f d4be

fc1.bias f4 [256]
-0.33869758 -0.12541148 -0.1405599 -0.26448733 -0.14215815 -0.10196147 -0.2892593 -0.13444975
-0.24332914 -0.2720508 -0.052065678 -0.08018255 -0.1112986 0.10821591 -0.26566246 -0.21376859
-0.1192103 -0.24027233 -0.35902074 0.09924429 -0.06939694 -0.15620753 -0.008640752 -0.24524876
0.1431774 -0.25492018 0.060932312 -0.19878572 -0.3131836 -0.23661561 -0.26847196 -0.069135465
0.074453115 -0.20674501 0.051644165 -0.33762738 -0.20033514 -0.09182552 -0.28093758 -0.13465375
-0.13069826 -0.24943054 -0.11036644 -0.24133788 -0.1616999 -0.1504245 -0.16041915 -0.3228146
-0.11823549 -0.1619239 -0.27576184 -0.11934432 -0.14812435 -0.11512498 -0.10519976 -0.30102932
-0.08662296 -0.05157475 0.021122063 -0.08205241 -0.13604666 -0.011664678 -0.26703665 -0.0101268925
0.22602749 -0.18074994 -0.25399485 -0.050835125 -0.294045 -0.0631522 -0.114622645 -0.07819408
-0.15244521 0.051548526 0.12545261 -0.12778057 -0.20055753 -0.2858772 -0.23849452 -0.22958083
-0.031214656 -0.049747083 -0.103815004 -0.17197846 0.04211467 -0.3046079 -0.22098695 -0.21220726
0.060666826 0.19491445 -0.120881714 -0.11217997 0.077886544 0.13384053 -0.30645046 -0.32388157
-0.02820723 0.0012880174 -0.010971788 -0.054526508 -0.26264825 -0.19741565 0.080695465 -0.19029194
-0.17238545 -0.24770877 -0.31906056 -0.31455004 -0.110522516 -0.181816 0.08059507 -0.02724354
0.0059477324 -0.30556187 -0.31061235 -0.28041992 -0.11906404 0.058092847 -0.20283747 -0.24658197
-0.25799564 -0.33733064 -0.14361654 -0.3435027 -0.24462582 -0.072246276 -0.20875046 -0.07412244
-0.027277183 -0.23385505 -0.024487074 -0.29634407 0.13896823 -0.33639604 -0.06162065 0.19301118
-0.11983718 -0.13537994 -0.20244414 -0.33995232 -0.18883172 -0.31254616 -0.23949945 -0.2515853
-0.061301254 -0.09921961 -0.045600012 0.08153548 -0.0997368 -0.3632376 -0.100421384 -0.19347146
0.06810729 -0.10961507 0.07064905 -0.0980891 -0.26401988 -0.12358881 -0.17559582 -0.16322553
-0.12764522 -0.09995792 -0.14684528 -0.27305093 -0.38236642 -0.104765 -0.20932835 -0.0842652
-0.067314506 -0.22750786 -0.06107053 -0.22509624 -0.14418784 -0.039501682 -0.15403907 -0.050729554
0.21678641 -0.1144911 -0.19048269 -0.21708593 0.050248846 -0.05683441 -0.057817407 -0.2402704
-0.2737609 -0.10597357 -0.20531806 -0.028835027 -0.15745364 -0.27149275 0.05977978 -0.12769294
-0.12347715 -0.012411861 -0.27143312 -0.027461873 -0.3152146 -0.0060301498 -0.08629851 -0.28266242
-0.26678362 -0.17918667 -0.21171167 -0.20172058 0.0055403193 0.020023236 -0.29564798 -0.30929276
-0.07494407 0.033007752 -0.15394673 -0.15680191 -0.11322784 0.06755546 0.026985062 -0.115158625
-0.22323869 0.123697154 -0.25946698 -0.07035047 0.17101647 -0.17683874 -0.2806912 -0.008810081
-0.100489244 -0.28316483 -0.11012538 -0.086638235 -0.11366608 -0.36258635 -0.1987402 0.09778238
-0.19433153 -0.23769933 -0.20030534 -0.18128783 -0.11580414 -0.076511115 -0.16706105 -0.079334766
-0.13525438 -0.10847188 -0.14103691 -0.23450235 -0.21976842 -0.12949505 -0.07511113 -0.19583969
-0.12350954 0.106554605 -0.24505433 -0.2959148 -0.23272066 -0.28252184 -0.14699064 -0.38296434
00000000: c569 adbe de6b 00be efee 0fbe e26a 87be
00000010: e891 11be 2dd1 d0bd cc19 94be 32ad 09be
00000020: 462b 79be 3e4a 8bbe d242 55bd c036 a4bd
00000030: 85f0 e3bd 4ea0 dd3d e904 88be 27e6 5abe
00000040: 8824 f4bd f309 76be 91d1 b7be 9740 cb3d
00000050: fc1f 8ebd def4 1fbe f191 0dbc 7e22 7bbe
00000060: 199d 123e e684 82be 2994 793d 7c8e 4bbe
00000070: 9a59 a0be 5d4b 72be 2875 89be e596 8dbd
00000080: e07a 983d f7b4 53be d588 533d 7fdd acbe
00000090: a824 4dbe 050f bcbd 0dd7 8fbe ace2 09be
000000a0: c4d5 05be b86a 7fbe cd07 e2bd 4721 77be
000000b0: a994 25be e108 1abe eb44 24be f547 a5be
000000c0: 7325 f2bd 61cf 25be a830 8dbe cb6a f4bd
000000d0: e9ad 17be a5c6 ebbd f972 d7bd 8420 9abe
000000e0: 6167 b1bd 0c40 53bd 2d08 ad3c 180b a8bd
000000f0: d14f 0bbe 351d 3fbc 07b9 88be 44eb 25bc
00000100: c073 673e 8316 39be 9d0b 82be 7e38 50bd
00000110: 118d 96be f155 81bd 47bf eabd 3824 a0bd
00000120: 991a 1cbe 8c24 533d a676 003e e9d8 02be
00000130: f45e 4dbe 7f5e 92be e837 74be 3d17 6bbe
00000140: e1b5 ffbc 99c3 4bbd f69c d4bd 1f1b 30be
00000150: 6f80 2c3d 91f5 9bbe 674a 62be dc4c 59be
00000160: c77d 783d a797 473e d590 f7bd 9dbe e5bd
00000170: fb82 9f3d 7e0d 093e 13e7 9cbe ced3 a5be
00000180: d912 e7bc b1d2 a83a 04c3 33bc 3057 5fbd
00000190: d579 86be 5427 4abe aa43 a53d e4db 42be
000001a0: d085 30be 5ea7 7dbe e85b a3be b40c a1be
000001b0: a159 e2bd f92d 3abe 070f a53d d82d dfbc
000001c0: 32e5 c23b 9b72 9cbe 9508 9fbe 3393 8fbe
000001d0: d9d7 f3bd c4f2 6d3d a0b4 4fbe fc7f 7cbe
000001e0: 0118 84be 9ab6 acbe 3710 13be 96df afbe
000001f0: 317f 7abe dbf5 93bd aec2 55be 81cd 97bd
00000200: 6674 dfbc b377 6fbe 1e99 c8bc 69ba 97be
00000210: b04d 0e3e 1a3c acbe ef65 7cbd b9a4 453e
00000220: 326d f5bd 0aa1 0abe 844d 4fbe 3b0e aebe
00000230: 1a5d 41be 0d06 a0be 583f 75be cacf 80be
00000240: 0617 7bbd a733 cbbd 14c7 3abd 13fc a63d
00000250: cf42 ccbd 47fa b9be baa9 cdbd 621d 46be
00000260: d67b 8b3d de7d e0bd 73b0 903d f0e2 c8bd
00000270: 9d2d 87be 211c fdbd 64cf 33be 9824 27be
00000280: 6eb5 02be bdb6 ccbd 9c5e 16be 55cd 8bbe
00000290: 88c5 c3be 088f d6bd 2c5a 56be 3c93 acbd
000002a0: 30dc 89bd d2f7 68be 1825 7abd a17f 66be
000002b0: faa5 13be 84cc 21bd 6bbc 1dbe cbc9 4fbd
000002c0: 42fd 5d3e 4f7a eabd e50d 43be c64b 5ebe
000002d0: bcd1 4d3d 33cb 68bd f2d1 6cbd 7209 76be
000002e0: 642a 8cbe ac08 d9bd e63e 52be 6f37 ecbc
000002f0: 873b 21be 1901 8bbe a5db 743d f0c1 02be
00000300: 97e1 fcbd 1e5b 4bbc 48f9 8abe b9f7 e0bc
00000310: cf63 a1be 9098 c5bb 46bd b0bd 21b9 90be
00000320: dd97 88be b67c 37be f2ca 58be d78f 4ebe
00000330: 918b b53b c507 a43c 2c5f 97be 9f5b 9ebe
00000340: 477c 99bd 2333 073d 36a4 1dbe ae90 20be
00000350: ffe3 e7bd 845a 8a3d c70f dd3c 49d8 ebbd
00000360: af98 64be ef54 fd3d dbd8 84be e813 90bd
00000370: f11e 2f3e 3715 35be c2b6 8fbe 2858 10bc
00000380: 4ecd cdbd fbfa 90be 6a89 e1bd 636f b1bd
00000390: c3c9 e8bd eba4 b9be 8d82 4bbe 2142 c83d
000003a0: d8fe 46be 7467 73be d81c 4dbe 84a3 39be
000003b0: b92a edbd dcb1 9cbd 0d12 2bbe 447a a2bd
000003c0: 2080 0abe 8126 debd fb6b 10be 6221 70be
000003d0: f90a 61be 5a9a 04be ddd3 99bd 338a 48be
000003e0: 92f2 fcbd 4d39 da3d 86ef 7abe 2582 97be
000003f0: 534e 6ebe b4a6 90be b784 16be e713 c4be

fc2.weight f4 [128, 256]
0.004173323 0.08084943 -0.36606255 0.13302362 0.07951925 -0.068965964 -0.2483307 -0.076219626
0.25291386 0.031478208 -0.35319796 0.0066290027 -0.21406926 -0.15796754 0.13908774 0.13073948
-0.5175115 -0.21796425 -0.14011322 -0.43443796 -0.13187636 -0.15249912 -0.081829876 0.21958505
-0.17339922 0.03935833 -0.09828299 0.41626975 -0.071576856 0.02029042 -0.3214724 -0.5303753
0.13939574 0.16469495 -0.34601107 -0.22373872 -0.12536213 -0.3797825 -0.116237156 -0.25021955
-0.08073988 -0.27567038 0.24395965 0.06798418 -0.28773922 -0.19377749 -0.1884667 -0.05895401
0.17410575 0.03382654 0.049187053 0.1189348 0.22172831 -0.29008704 -0.058301013 -0.0536609
-0.17918472 -0.019371234 0.041527692 -0.024066603 0.3073545 -0.1126425 -0.15153039 -0.110709876
0.03288508 -0.061963793 0.08902121 -0.31622714 -0.2115313 0.07645109 -0.20714523 -0.14049253
-0.3163343 0.08287046 0.06367346 0.018574234 0.10321664 0.052830834 0.12868585 -0.18423785
-0.11473486 0.26977584 -0.07426108 -0.28188768 0.18530248 -0.13302691 0.1887893 -0.09517158
-0.1284006 -0.18616973 -0.25412834 -0.07774339 -0.6057746 0.0167633 0.104275584 0.027860401
-0.006184004 -0.2158606 -0.12115931 -0.26664206 0.033437874 0.09610828 -0.33092555 -0.44050553
0.086180575 0.37696502 -0.07428067 0.119113736 -0.27359778 -0.42747822 -0.20686524 0.082673766
-0.03714514 -0.16339734 -0.31312594 -0.055304915 0.0125180045 0.11239529 -0.017664718 0.22410837
0.14285365 -0.17429161 0.1897048 -0.008266413 0.10506961 -0.053843107 0.12149457 0.0002593225
-0.37868875 -0.0979461 -0.022812204 0.061954003 -0.3672709 0.040197752 -0.037467554 -0.16318326
0.22206472 0.118047215 0.027450562 -0.0564104 0.14909981 0.18574339 -0.12081088 0.25557378
-0.09679604 0.14524299 -0.19166009 -0.22411293 0.20211521 0.1108329 -0.07139905 -0.34886685
0.15304746 -0.019455845 -0.09183991 -0.067869104 -0.033995036 -0.12473305 0.013351808 0.30581897
0.15725265 -0.41216683 0.03876286 0.042202324 0.13168778 -0.06095793 0.07049277 -0.07502158
0.08724012 -0.06354289 -0.16661997 0.031260252 -0.23787533 -0.1721817 0.18134366 -0.021092916
-0.02594803 -0.36808062 0.2581408 -0.13093427 -0.05432616 0.13827285 0.28769144 0.20507838
0.060562257 0.12813668 0.12998739 0.027897757 -0.013538353 0.061010584 -0.011354319 -0.12398934
-0.3676356 0.24318177 -0.23310587 -0.06002226 0.06955942 0.06732627 0.020249177 -0.11989288
0.11522183 -0.13630855 -0.19847302 0.06972048 -0.14371565 -0.55641097 -0.0351907 0.28232214
-0.17485896 -0.18221578 -0.13432246 -0.095615074 0.20284584 0.39560422 -0.10095437 0.018877368
0.18941131 -0.013453377 -0.06566732 -0.28780568 -0.01128766 0.043526046 0.28424108 -0.05244205
0.15147632 -0.53676444 0.27399167 -0.08970918 -0.011656319 -0.18879299 -0.23513718 -0.30819428
0.3002568 0.04824577 -0.007899747 -0.30564496 -0.50119066 0.13646665 -0.25304082 0.18922211
0.34859973 -0.20324956 -0.037366226 0.29522976 -0.05674761 0.07732467 -0.037817243 0.08909147
-0.27400306 -0.09819123 0.08608003 -0.09150233 -0.009744892 0.40064028 -0.17772776 -0.2824158
00000000: 5fc0 883b 6394 a53d 8d6c bbbe 5837 083e
00000010: fdda a23d 073e 8dbd 674a 7ebe 0919 9cbd
00000020: ed7d 813e 4bef 003d 5dd6 b4be 1b38 d93b
00000030: f934 5bbe 3ec2 21be 046d 0e3e 92e0 053e
00000040: a27b 04bf 0532 5fbe d779 0fbe a76e debe
00000050: 990a 07be bb28 1cbe 6c96 a7bd e7da 603e
00000060: 918f 31be 3336 213d 9848 c9bd 4f21 d53e
00000070: e396 92bd 1838 a63c 0898 a4be adc6 07bf
00000080: c2bd 0e3e cba5 283e 5d28 b1be c31b 65be
00000090: ee5e 00be da72 c2be bf0d eebd c71c 80be
000000a0: f35a a5bd ab24 8dbe 8fd0 793e 4a3b 8b3d
000000b0: 8e52 93be 9b6d 46be 6afd 40be c379 71bd
000000c0: c748 323e b38d 0a3d 5d78 493d 1794 f33d
000000d0: bf0c 633e 4a86 94be 0bcd 6ebd 88cb 5bbd
000000e0: 337c 37be 6cb0 9ebc f118 2a3d 5327 c5bc
000000f0: 925d 9d3e 1cb1 e6bd c82a 1bbe dcbb e2bd
00000100: 81b2 063d bfcd 7dbd c150 b63d 86e8 a1be
00000110: a99b 58be 6492 9c3d e11d 54be 46dd 0fbe
00000120: 92f6 a1be fdb7 a93d 3b67 823d fe28 983c
00000130: 3f63 d33d 2565 583d 39c6 033e d9a8 3cbe
00000140: 1cfa eabd 0f20 8a3e 3116 98bd 9553 90be
00000150: efbf 3d3e 3538 08be fb51 413e 51e9 c2bd
00000160: 727b 03be 47a3 3ebe 1c1d 82be ed37 9fbd
00000170: 0b14 1bbf 3053 893c 708e d53d 7f3b e43c
00000180: 2fa3 cabb 900a 5dbe 5f22 f8bd 4f85 88be
00000190: 27f6 083d 6bd4 c43d 136f a9be f189 e1be
000001a0: 717f b03d 8f01 c13e 7720 98bd e7f1 f33d
000001b0: 0215 8cbe 6dde dabe 7bd4 53be dd50 a93d
000001c0: 8125 18bd a251 27be 0b52 a0be 6887 62bd
000001d0: 5118 4d3c 802f e63d 99b5 90bc aa7c 653e
000001e0: 3a48 123e 8079 32be fa41 423e d96f 07bc
000001f0: bc2e d73d 978a 5cbd 25d2 f83d adf5 8739
00000200: 7ee3 c1be f797 c8bd a9e0 babc 7bc3 7d3d
00000210: ee0a bcbe 66a6 243d 9477 19bd 8319 27be
00000220: ef64 633e bdc2 f13d 00e0 e03c 970e 67bd
00000230: 9fad 183e 8433 3e3e b26b f7bd 91da 823e
00000240: 013d c6bd 94ba 143e 8b42 44be dc7d 65be
00000250: 4af7 4e3e 5cfc e23d aa39 92bd ad9e b2be
00000260: 79b8 1c3e dd61 9fbc 9016 bcbd f5fe 8abd
00000270: 613e 0bbd 0b74 ffbd 8bc1 5a3c 4e94 9c3e
00000280: d706 213e 8807 d3be cec5 1e3d 58dc 2c3d
00000290: 29d9 063e 06af 79bd 835e 903d eaa4 99bd
000002a0: f3aa b23d c622 82bd 6d9e 2abe c00a 003d
000002b0: 9795 73be 6650 30be 27b2 393e 0dcb acbc
000002c0: f790 d4bc 1075 bcbe 082b 843e a213 06be
000002d0: 1c85 5ebd 6697 0d3e 4b4c 933e 1100 523e
000002e0: 2110 783d 4336 033e 6a1b 053e d689 e43c
000002f0: f8cf 5dbc 3ce6 793d 7707 3abc 20ee fdbd
00000300: bc3a bcbe a404 793e 4eb3 6ebe e7d9 75bd
00000310: 2b75 8e3d 5be2 893d 9ae1 a53c 668a f5bd
00000320: 6cf9 eb3d 7894 0bbe 833c 4bbe 9cc9 8e3d
00000330: 322a 13be f370 0ebf 2024 10bd 878c 903e
00000340: 3a0e 33be c696 3abe d48b 09be d6d1 c3bd
00000350: d2b6 4f3e a38c ca3e 2ac1 cebd b6a4 9a3c
00000360: 0af5 413e 8e6b 5cbc 967c 86bd 445b 93be
00000370: e1ef 38bc 5e48 323d 0c88 913e 7acd 56bd
00000380: 9c1c 1b3e 6569 09bf a348 8c3e 72b9 b7bd
00000390: 25fa 3ebc f352 41be cdc7 70be a4cb 9dbe
000003a0: 42bb 993e 5b9d 453d f16d 01bc 7f7d 9cbe
000003b0: 084e 00bf eabd 0b3e 918e 81be 71c3 413e
000003c0: aa7b b23e a720 50be 540d 19bd 5b28 973e
000003d0: 2f70 68bd 665c 9e3d 41e6 1abd 9775 b63d
000003e0: 214a 8cbe 7c18 c9bd ba4a b03d 9365 bbbd
000003f0: 0aa9 1fbc b920 cd3e 44fe 35be ce98 90be

fc2.bias f4 [128]
-0.12702815 -0.12071927 -0.16396314 -0.015451942 -0.117609195 -0.19052614 -0.15052013 -0.031247078
-0.08988264 0.06908355 -0.27809033 0.010063721 -0.18866761 0.033225134 -0.083373964 -0.45294487
0.03768871 -0.13986148 -0.01752239 -0.09556653 -0.15844595 -0.06693368 -0.1532274 -0.19986825
-0.0154704675 -0.053626884 0.1486334 -0.0846306 -0.026218984 -0.089889154 -0.016585516 -0.106504984
-0.11694592 0.10729408 -0.17672727 -0.21241342 -0.1359713 -0.028332474 -0.2811322 -0.09006669
-0.054830357 0.0041562864 0.040347464 -0.40786123 -0.058585104 -0.02149466 -0.23798947 -0.29950932
0.012945213 -0.07238066 0.024183352 -0.053291928 0.103061676 -0.20533724 -0.20349886 2.9641908e-05
-0.071009144 -0.2028419 -0.023107072 -0.08462626 0.005814455 -0.020687263 -0.085938595 -0.0984282
-0.07939182 -0.10576899 -0.120184086 -0.08581183 -0.13011101 0.0005609274 -0.03352122 -0.022910098
-0.46108615 -0.039883774 -0.052755103 -0.008657782 0.059130874 -0.17575352 -0.11226796 -0.04665317
-0.100322425 -0.102770194 0.004095388 -0.16353358 -0.09605811 -0.11147929 -0.04825937 -0.09383814
-0.03561362 0.100454465 -0.22968616 0.077723086 -0.34876004 0.031231113 -0.09143481 0.027371211
-0.13309954 -0.13899605 0.13834146 -0.060427517 -0.08100709 0.028962115 -0.06489365 -0.029507264
-0.07735314 -0.17548382 -0.035754204 -0.049785573 -0.052843608 -0.11591176 0.011274619 -0.13194624
-0.16494653 -0.14879513 0.031878516 -0.17194822 -0.17319937 0.003167243 -0.03591234 -0.015401321
-0.14067407 -0.04958259 -0.008516965 0.0677851 -0.27901253 -0.029815251 -0.15880668 0.11196053
00000000: ab13 02be aa3b f7bd f4e5 27be 242a 7dbc
00000010: 17dd f0bd 4919 43be f321 1abe dff9 ffbc
00000020: 6414 b8bd ad7b 8d3d db61 8ebe 4ee2 243c
00000030: 1532 41be 1417 083d f8bf aabd 64e8 e7be
00000040: 7a5f 1a3d d937 0fbe 1d8b 8fbc 63b8 c3bd
00000050: a83f 22be 8614 89bd a5e7 1cbe 43aa 4cbe
00000060: d877 7dbc dda7 5bbd 5b33 183e cf52 adbd
00000070: 32c9 d6bc ce17 b8bd 59de 87bc 491f dabd
00000080: 5881 efbd 00bd db3d fef7 34be e782 59be
00000090: 0f3c 0bbe 8119 e8bc 8ff0 8fbe e374 b8bd
000000a0: cc95 60bd 7531 883b 6243 253d 30d3 d0be
000000b0: eff6 6fbd 9215 b0bc 83b3 73be 4959 99be
000000c0: 2918 543c 503c 94bd 2a1c c63c a348 5abd
000000d0: 0012 d33d ed43 52be 0162 50be 83a7 f837
000000e0: 3e6d 91bd c9b5 4fbe 0b4b bdbc 8850 adbd
000000f0: 2f87 be3b 5678 a9bc 9300 b0bd b994 c9bd
00000100: 2e98 a2bd 6a9d d8bd 1323 f6bd 1dbe afbd
00000110: d23b 05be 330b 133a 8c4d 09bd f5ad bbbc
00000120: 7c13 ecbe 2b5d 23bd bc15 58bd 5fd9 0dbc
00000130: 3733 723d bbf8 33be bfec e5bd 6517 3fbd
00000140: d875 cdbd 2e79 d2bd 9b32 863b 5975 27be
00000150: 1dba c4bd 414f e4bd 9eab 45bd 362e c0bd
00000160: 96df 11bd 12bb cd3d d932 6bbe 482d 9f3d
00000170: ad90 b2be 64d8 ff3c 2c42 bbbd 9739 e03c
00000180: 3f4b 08be fb54 0ebe 62a9 0d3e d882 77bd
00000190: 0ce7 a5bd f541 ed3c f6e6 84bd 38b9 f1bc
000001a0: 536b 9ebd 08b2 33be 0073 12bd f5eb 4bbd
000001b0: 8a72 58bd 2563 edbd 2eb9 383c ea1c 07be
000001c0: bee7 28be c05d 18be 0c93 023d 3213 30be
000001d0: 2d5b 31be 8591 4f3b d118 13bd d355 7cbc
000001e0: dd0c 10be 1d17 4bbd be8a 0bbc ead2 8a3d
000001f0: bbda 8ebe 1d3f f4bc 389e 22be 904b e53d

fc3.weight f4 [2, 128]
-0.067683525 -0.09564431 0.082856916 -0.009000659 -0.12712903 -0.013004482 -0.058706686 -0.020257747
-0.18370661 0.20955944 -0.27503046 0.0147950435 -0.07753768 0.0591155 0.009800091 -0.3949109
0.069810726 0.033835363 0.09523826 -0.015730271 -0.009365932 -0.21791136 -0.09535655 -0.15259093
-0.07371107 0.38577053 0.009900473 2.0674592e-05 0.00011700808 -0.0040955804 0.3804395 0.19568658
0.06331856 -0.010747797 -0.10568986 0.08727983 0.0053691254 -0.019702937 0.14694096 0.27418408
0.0056464826 -0.00064551464 0.10332268 0.20379305 -0.020883618 0.15640901 0.01507734 -0.389024
0.060495846 -0.001640271 0.005439295 -0.08487993 0.007834224 -0.0107964855 0.030082772 -0.21365996
0.038677122 0.056039773 0.022915896 0.00829444 0.14094788 0.011173523 0.2233755 0.067610204
0.14260289 0.21787056 0.08522837 0.027645376 -0.08021231 -0.12531997 -0.0062228586 0.01696509
-0.23878665 0.004961077 -0.15982978 0.0020274245 0.19254516 -0.14802393 0.27220953 0.1323352
-0.025111718 0.16161644 -0.2493902 -0.08451009 -0.24021079 0.115816586 0.094277225 -0.09673939
0.15745573 0.21598028 0.17719808 0.06614781 -0.36304042 0.24633953 0.007229921 0.12485129
-0.20861301 -0.18265828 0.03743218 -0.31252992 0.004397286 0.0027713315 0.26736778 -0.13982798
-0.011622111 -0.041239027 0.107802704 0.02482329 0.011816295 0.3019183 -0.11103869 0.014208562
0.13621877 -0.101865575 0.13448307 0.109103784 -0.08567273 -0.009068332 -0.004398331 0.15676409
-0.024279883 0.007994496 0.18265285 -0.012260858 -0.109675616 0.1471926 0.07723872 0.29990488
0.30193195 -0.43478298 0.24406566 -0.3194553 -0.15424651 0.31488642 -0.015775453 -0.0032362842
-0.12736711 0.0529487 0.06252658 0.019174928 0.0043365886 0.13697983 0.3821809 -0.29944512
0.34759584 -0.067852415 0.04778686 0.31420478 -0.15845826 0.17330478 -0.021676516 0.07595079
0.15843233 0.15703478 0.540335 0.012630798 -0.0022835617 0.008201992 -0.13058749 0.20362426
-0.09628328 0.28168887 0.015402397 -0.06705219 0.027423441 0.006598701 0.012894456 -0.05291618
0.0025810448 -0.017098036 0.15935688 0.39370078 -0.30443332 -0.20785734 -0.16247 0.0643794
0.24556302 0.010358286 0.022525996 -0.03339487 0.4895337 0.10385259 0.27929214 -0.23611206
0.112833284 0.21196347 -0.0035463346 -0.03000383 -0.2212105 -0.00010290149 -0.119426236 0.31457034
0.052696295 0.26675808 -0.11847607 -0.0152255725 0.06640585 0.07608722 0.06502795 0.0125300335
-0.20188238 0.007482642 0.11362503 0.2530638 -0.3353257 -0.2403907 -0.028211562 -0.078515954
0.018872432 -0.08596012 0.36163968 0.3524778 -0.23861367 0.03340557 -0.15428141 -0.07167492
-0.037258673 -0.13778824 -0.14414239 0.21829058 0.0028780377 -0.37399957 0.254314 0.09890888
-0.17413159 -0.097254604 -0.45785764 0.35087502 0.0142641775 0.013763788 0.04510086 0.058664456
-0.002214465 -0.087726094 -0.118051894 0.019017406 -0.004206612 0.15051901 0.03550837 0.014951269
0.02571503 0.076714985 -0.03437902 -0.17170258 0.2725072 0.00082721334 -0.010831622 0.34242254
0.11543613 0.0087520555 0.1407974 0.40657142 0.3471455 0.1117381 0.14636129 0.015616144
00000000: a99d 8abd 2ae1 c3bd e3b0 a93d 8077 13bc
00000010: 1d2e 02be c010 55bc 6c76 70bd 93f3 a5bc
00000020: 961d 3cbe c096 563e cbd0 8cbe e966 723c
00000030: 13cc 9ebd 1823 723d 9090 203c c331 cabe
00000040: edf8 8e3d f396 0a3d 470c c33d c5dc 80bc
00000050: 9173 19bc 2824 5fbe 4b4a c3bd cc40 1cbe
00000060: d4f5 96bd b783 c53e 9835 223c 596e ad37
00000070: 3c62 f538 3834 86bb f7c8 c23e 1062 483e
00000080: 29ad 813d 8717 30bc ed73 d8bd c4bf b23d
00000090: 7def af3b 0e68 a1bc b177 163e db61 8c3e
000000a0: 2106 b93b c137 29ba d79a d33d 20af 503e
000000b0: 1f14 abbc af29 203e f306 773c 272e c7be
000000c0: 7eca 773d 5dfe d6ba 1d3c b23b 87d5 adbd
000000d0: 1e5b 003c bee3 30bc 2570 f63c adc9 5abe
000000e0: e76b 1e3d f689 653d 1eba bb3c 67e5 073c
000000f0: a454 103e 2711 373c 8cbc 643e 3877 8a3d
00000100: 7e06 123e 7619 5f3e 368c ae3d 8e78 e23c
00000110: 5a46 a4bd e153 00be 1fe9 cbbb 5ffa 8a3c
00000120: 7d84 74be 8890 a23b 6baa 23be 8ade 043b
00000130: 8f2a 453e 9693 17be 0c5f 8b3e e182 073e
00000140: 17b7 cdbc c87e 253e 2560 7fbe a013 adbd
00000150: d1f9 75be 3f31 ed3d 6b14 c13d 4d1f c6bd
00000160: 133c 213e ef29 5d3e 6a73 353e 8178 873d
00000170: 6fe0 b9be 6e40 7c3e f9e8 ec3b 08b2 ff3d
00000180: a69e 55be c60a 3bbe 7c52 193d ec03 a0be
00000190: 1c17 903b 3a9f 353b 6ee4 883e 112f 0fbe
000001a0: ab6a 3ebc 41ea 28bd aac7 dc3d 365a cb3c
000001b0: 2299 413c 0995 9a3e 4168 e3bd 07cb 683c
000001c0: ef7c 0b3e e69e d0bd eeb5 093e ce71 df3d
000001d0: 2f75 afbd 5793 14bc e01f 90bb c486 203e
000001e0: 9be6 c6bc 59fb 023c 5909 3b3e c4e1 48bc
000001f0: 9c9d e0bd a8b9 163e 562f 9e3d 228d 993e
00000200: d396 9a3e e09b debe 59ec 793e a58f a3be
00000210: ccf2 1dbe cb38 a13e 863b 81bc d717 54bb
00000220: 866c 02be bce0 583d f00d 803d bd14 9d3c
00000230: f119 8e3b 7144 0c3e 37ad c33e df50 99be
00000240: 15f8 b13e 35f6 8abd 28bc 433d 73df a03e
00000250: e242 22be cf76 313e f392 b1bc 168c 9b3d
00000260: 163c 223e bacd 203e 6553 0a3f 68f1 4e3c
00000270: cfa7 15bb a661 063c bab8 05be e182 503e
00000280: 2b30 c5bd 8639 903e 565a 7c3c a952 89bd
00000290: 20a7 e03c ea39 d83b 4543 533c a3be 58bd
000002a0: bf26 293b 2e11 8cbc 732e 233e 2693 c93e
000002b0: afde 9bbe 8ed8 54be 895e 26be 59d9 833d
000002c0: df74 7b3e cdb5 293c 7088 b83c 0fc9 08bd
000002d0: 29a4 fa3e abb0 d43d 61ff 8e3e 5cc7 71be
000002e0: 2315 e73d f40c 593e 9f69 68bb 98ca f5bc
000002f0: 0185 62be d1cc d7b8 be95 f4bd 5d0f a13e
00000300: 12d8 573d 8494 883e 95a3 f2bd ae74 79bc
00000310: caff 873d 9ed3 9b3d 602d 853d c54a 4d3c
00000320: 41ba 4ebe f330 f53b 3db4 e83d 9491 813e
00000330: cfaf abbe fb28 76be ef1b e7bc f9cc a0bd
00000340: 5c9a 9a3c dc0b b0bd d628 b93e f877 b43e
00000350: 2457 74be 47d4 083d f2fb 1dbe 4dca 92bd
00000360: 8d9c 18bd 5c18 0dbe 109a 13be 9187 5f3e
00000370: 769d 3c3b df7c bfbe 7235 823e bd90 ca3d
00000380: 8d4f 32be 6c2d c7bd 516c eabe e4a5 b33e
00000390: 4cb4 693c 8381 613c aebb 383d 244a 703d
000003a0: 8f20 11bb bda9 b3bd 31c5 f1bd 64ca 9b3c
000003b0: 9ed7 89bb a821 1a3e 3971 113d 2bf6 743c
000003c0: 54a8 d23c bf1c 9d3d 04d1 0cbd cdd2 2fbe
000003d0: 1086 8b3e 59d9 583a 1e77 31bc 0252 af3e
000003e0: c769 ec3d c864 0f3c 322d 103e 212a d03e
000003f0: 0ebd b13e f2d6 e43d bcdf 153e dbda 7f3c

fc3.bias f4 [2]
-0.013240914 0.06424958
00000000: 6bf0 58bc 4995 833d
